rKB_model.pth (torch, 444263 bytes, 6 tensors)

l1.weight f4 [256, 277]
-0.015162369 -0.0069882204 -0.02023835 0.094137006 0.0097327335 -0.031368017 -0.027649488 -0.0081590945
0.117175475 -0.01862209 -0.004476512 -0.042344302 0.030665781 0.061609346 0.072679564 -0.031240726
0.04178687 0.0049468074 0.048641644 -0.040622674 -0.0567979 0.016037287 0.015113274 0.06616905
-0.038825747 0.03676871 0.07678704 0.013234743 0.01480316 0.14426452 -0.0067146868 -0.037315335
-0.018849557 -0.04941932 -0.028965328 0.006140348 -0.0024183467 0.04556063 0.009361857 0.031230345
0.028674677 0.00020876205 -0.014196078 0.0025287138 -0.039276645 0.05039015 -0.03197398 0.057807777
0.0029863685 -0.023669396 0.057713848 0.056964815 0.040652595 -0.04703293 -0.08836211 0.020638928
-0.002914702 0.06690673 -0.024263762 0.00058869144 -0.07275263 0.024161087 0.053281475 0.0042097378
0.010067528 0.010399688 -0.035764012 -0.045472402 0.025762405 0.0027195404 -0.010377476 -0.0063172453
0.05088688 0.0010546509 -0.025353273 -0.0027954848 0.04357957 0.04590153 -0.02022365 0.0221938
0.024461236 0.037319615 0.00991179 0.026835699 0.046322525 -0.036826033 -0.027158437 -0.0007878311
-0.05586045 0.020578051 -0.004945641 -0.029358452 -0.0016957452 0.017048044 0.05090174 0.06996534
-0.034641955 -0.031355575 0.015612759 -0.05390942 0.035569575 -0.06053944 0.027563676 -0.07771377
0.024549505 -0.037123878 -0.025735175 -0.054460835 0.024196329 0.027628606 0.04394482 -0.04654259
0.00790325 0.034777075 -0.027768811 -0.005393728 -0.049759727 0.035833582 -0.00062588946 -0.015869297
0.02074361 0.0045635886 -0.013657703 0.014846641 -0.024459207 -0.06718927 0.05511795 0.023875695
0.07333695 0.031177621 0.010489459 -0.036379516 -0.008546035 0.038075738 0.045929227 -0.049133666
0.037658907 0.027472384 -0.0028170056 -0.07059514 -0.04250008 -0.0033353353 -0.034791324 0.054157864
0.04043064 0.0014351438 0.011030386 -0.025641438 0.00844076 0.03708014 0.05172652 -0.00662154
0.02506181 0.05340453 -0.040555507 -0.04631642 -0.06472141 -0.016368847 -0.01620479 0.0055755624
0.012413534 -0.06047507 0.056486964 0.043335047 0.01929224 0.008914636 -0.0063391635 -0.025167314
-0.0053614057 -0.06667862 -0.022884814 -0.07362879 0.024483891 -0.076128006 -0.03379109 -0.07466368
0.062303644 0.059091292 0.053254228 0.039898347 0.048201825 0.059006684 -0.0014420862 0.075556815
-0.015693963 -0.04821933 -0.027242502 -0.07977586 0.007675351 -0.017184233 -0.018974146 0.009152679
-0.06409492 -0.016640404 0.024360763 0.013285402 -0.050770752 -0.0407514 0.0722786 0.014038294
-0.011287398 0.04549739 0.06036974 -0.0105954725 0.058091164 0.024174767 0.025207099 0.052792124
-0.035488416 -0.08120987 -0.0027402649 0.06524872 -0.055482402 0.06805764 -0.09651931 0.06607728
0.003807457 -0.07060206 -0.00040665502 -0.02842276 -0.020830218 0.006148641 -0.06644699 0.018842885
-0.022440774 -0.028053975 0.06683512 -0.006184214 0.035518795 0.04629598 0.053898107 -0.054506093
-0.049829703 -0.06716001 0.06408986 -0.010530468 -0.07901767 0.078010075 -0.002388975 -0.051128794
-0.0023976334 0.025479881 0.06286582 -0.016016707 0.021281524 -0.045088798 0.0032372214 0.027493108
-0.029707158 -0.07546229 0.0014624898 -0.009002161 0.054098815 -0.045040064 -0.021875508 -0.034212664
00000000: 966b 78bc 71fd e4bb e5ca a5bc e7ca c03d
00000010: 0b76 1f3c c07b 00bd 2e81 e2bc b9ad 05bc
00000020: b2f9 ef3d 5a8d 98bc b4af 92bb 3871 2dbd
00000030: ce36 fb3c 155a 7c3d 06d9 943d 8dec ffbc
00000040: b628 2b3d d418 a23b 763c 473d f663 26bd
00000050: eaa4 68bd a160 833c aa9d 773c a483 873d
00000060: bf07 1fbd c99a 163d 8642 9d3d 89d6 583c
00000070: f488 723c 14ba 133e e006 dcbb f7d7 18bd
00000080: 636a 9abc ea6b 4abd b248 edbc f934 c93b
00000090: 207d 1ebb c89d 3a3d 7962 193c c8d6 ff3c
000000a0: 28e7 ea3c 23e7 5a39 ab96 68bc c7b8 253b
000000b0: 8ce0 20bd e765 4e3d 26f7 02bd d9c7 6c3d
000000c0: f3b6 433b 52e6 c1bc 5b65 6c3d f053 693d
000000d0: 5683 263d 9aa5 40bd 32f7 b4bd f812 a93c
000000e0: 9604 3fbb 6506 893d ccc4 c6bc 6a52 1a3a
000000f0: 55ff 94bd 79ed c53c ad3d 5a3d d7f1 893b
00000100: 46f2 243c 7463 2a3c 497d 12bd 4541 3abd
00000110: ae0b d33c 513a 323b 4a06 2abc e500 cfbb
00000120: c36e 503d 363c 8a3a abb1 cfbc 7434 37bb
00000130: 7e80 323d 3e03 3c3d 11ac a5bc c6cf b53c
00000140: ee62 c83c 74dc 183d 0f65 223c 8ad6 db3c
00000150: b0bc 3d3d e5d6 16bd 5f7b debc 7386 4eba
00000160: edcd 64bd 4d93 a83c 0b0f a2bb 2381 f0bc
00000170: c443 deba 57a8 8b3c 587e 503d fd49 8f3d
00000180: b9e4 0dbd b46e 00bd a8cc 7f3c 20d0 5cbd
00000190: 67b1 113d 34f8 77bd 38cd e13c 6628 9fbd
000001a0: 0b1c c93c 350f 18bd 93d2 d2bc 5312 5fbd
000001b0: 6137 c63c 6355 e23c 7cff 333d 71a3 3ebd
000001c0: a27c 013c 6872 0e3d 6b7b e3bc dfbd b0bb
000001d0: dbd0 4bbd 3cc6 123d bb12 24ba 5400 82bc
000001e0: 81ee a93c 288a 953b 8fc4 5fbc 533f 733c
000001f0: ad5e c8bc 879a 89bd 5cc3 613d f696 c33c
00000200: af31 963d 3668 ff3c fbdb 2b3c b002 15bd
00000210: ab04 0cbc 4ef5 1b3d 4920 3c3d 6240 49bd
00000220: 3a40 1a3d c40d e13c 839d 38bb 2f94 90bd
00000230: 9014 2ebd a495 5abb 5981 0ebd a3d4 5d3d
00000240: 999a 253d 6f1b bc3a cbb8 343c fe0d d2bc
00000250: 1d4b 0a3c 58e1 173d 30df 533d 81f9 d8bb
00000260: 6d4e cd3c b5be 5a3d 881d 26bd 49b6 3dbd
00000270: a98c 84bd f617 86bc e8bf 84bc 35b3 b63b
00000280: 2362 4b3c b5b4 77bd e05e 673d 1780 313d
00000290: c20a 9e3c b20e 123c c2b8 cfbb af2b cebc
000002a0: bbae afbb cd8e 88bd ef78 bbbc b1ca 96bd
000002b0: 7192 c83c 00e9 9bbd 8768 0abd 45e9 98bd
000002c0: 1b32 7f3d b609 723d 1b21 5a3d 736c 233d
000002d0: 476f 453d feb0 713d 6204 bdba 88bd 9a3d
000002e0: a090 80bc a281 45bd ab2b dfbc 8761 a3bd
000002f0: 8381 fb3b f3c5 8cbc ab6f 9bbc 1ef5 153c
00000300: 3344 83bd 7551 88bc 3990 c73c 04ab 593c
00000310: fef4 4fbd f1ea 26bd cd06 943d df00 663c
00000320: c7ee 38bc 795b 3a3d 4346 773d a298 2dbc
00000330: 00f1 6d3d 290a c63c 1e7f ce3c 8e3c 583d
00000340: 4d5c 11bd 5c51 a6bd 0496 33bb 1fa1 853d
00000350: 8441 63bd ce61 8b3d eaab c5bd 8653 873d
00000360: 8786 793b d097 90bd 5034 d5b9 d9d6 e8bc
00000370: 22a4 aabc 8a7a c93b 5c15 88bd 655c 9a3c
00000380: b7d5 b7bc 73d1 e5bc dae0 883d f2a4 cabb
00000390: 287c 113d dba0 3d3d 43c4 5c3d c841 5fbd
000003a0: 3b1a 4cbd 308b 89bd 8b41 833d fc87 2cbc
000003b0: 04d4 a1bd bfc3 9f3d 5990 1cbb 6d6c 51bd
000003c0: 9d21 1dbb 2fbb d03c ccbf 803d 7835 83bc
000003d0: 9756 ae3c 08af 38bd 9027 543b 3a39 e13c
000003e0: 6d5c f3bc f98b 9abd 04b1 bf3a cd7d 13bc
000003f0: b896 5d3d ee7b 38bd 4434 b3bc 9422 0cbd

l1.bias f4 [256]
0.020754276 0.096945144 0.020014685 0.062855184 0.02243281 -0.00019995871 0.019893613 -0.021464469
0.076099865 0.04514492 -0.0057545477 0.13073897 0.074345626 0.08518476 0.0049263244 -0.038881365
0.020611834 0.07382841 -0.026279127 0.07400134 0.032308213 0.049799412 0.05088429 0.0823326
0.06098107 -0.024388375 0.042454828 0.10307582 0.20527586 0.046309818 0.011792045 0.028296763
0.08102782 0.031921405 0.018204207 0.094212525 0.085971296 0.113563165 0.024465216 0.0006730701
0.021892173 0.058743432 0.106086366 0.081053056 0.030461105 -0.034534775 -0.0051364047 0.018980797
0.12313031 0.029623833 0.04815568 -0.013986008 0.05544165 0.049028534 -0.00819682 0.09276511
0.027178697 0.019068597 0.05867852 0.102775276 0.045684326 -0.015333032 0.081354246 -0.037787504
-0.03244001 0.06861073 -0.007901699 0.08405112 -0.017805535 -0.03490502 -0.02160977 0.050403412
0.04130859 0.11172899 -0.001322683 0.12669739 0.012126355 0.03130561 0.034440782 0.0005295583
0.07738935 0.07249028 0.13018116 0.0148981465 0.055741042 0.026335903 -0.021571932 0.02460111
-0.026222326 0.09040899 0.057049915 0.06923956 0.01977036 0.008986549 0.0038564 0.057316538
0.0474177 0.042416964 0.027742324 0.04781616 0.04539408 0.070856355 0.018934622 0.01353748
0.010568382 0.115013026 -0.055818424 0.021132886 0.09331822 0.06684723 0.03575848 -0.022102762
0.043528806 0.063203655 0.07816609 -0.030897707 0.09339873 0.046120774 0.095919915 -0.037695225
0.094443575 0.06208346 0.09651321 0.09030974 0.04248035 0.00759033 -0.02557017 -0.010080609
0.07385206 0.045806393 -0.022434779 0.07786844 0.039259106 -0.009520482 0.109567545 0.058310356
0.024928758 -0.031026978 -0.025910292 -0.021533623 0.09019538 0.058225006 0.039717168 0.010694136
-0.036585875 -0.0141144395 0.03748121 0.06942324 0.040385082 -0.042207386 -0.026897514 0.06948573
0.0380177 -0.010816406 0.03286034 -0.029822618 0.014916832 -0.011770823 -0.013584682 -0.026174672
0.13127078 0.081651956 -0.043416664 -0.0056543015 0.065082826 0.09912397 0.08953736 0.00045248066
0.0007330967 0.016302945 0.07928896 -0.00938569 0.036494564 0.115792036 0.030062294 0.00076527015
0.016934773 0.019276174 -0.0003656644 0.052924473 0.009107427 0.10332278 -0.0022613776 0.063479155
-0.04487909 0.040557653 0.0040919096 0.090702765 0.076112956 0.016331984 0.041959025 0.00998756
0.097162314 0.016730808 0.09207425 -0.04012535 0.038661413 -0.015224098 0.039360426 -0.021630011
0.027570525 0.024003852 0.0005784365 0.07286192 -0.007641541 0.0068844613 -0.024365263 0.025655584
0.033493757 0.083369076 0.07509825 -0.015145444 0.0038379058 0.029437704 0.0281444 0.041126337
-0.011254369 0.0050323536 0.08040159 0.0030041353 -0.047802962 0.06717813 0.06990626 0.016262732
0.034028895 0.0730522 0.0028561747 0.011777938 0.032795113 0.056723863 -0.008642107 0.0433511
0.07609772 -0.035376772 0.06595163 -0.014267904 -0.016377704 0.09574781 0.09668135 0.005160933
0.015389459 0.052437674 0.10589538 0.08150296 -0.02283876 0.067492954 0.052698884 0.042943038
-0.037314344 0.10487374 0.06773689 0.05673128 0.017937938 0.008795532 0.010963693 0.08757352
00000000: df04 aa3c 2d8b c63d d6f5 a33c 38ba 803d
00000010: 03c5 b73c 02ac 51b9 eef7 a23c 41d6 afbc
00000020: 3fda 9b3d e1e9 383d a590 bcbb 70e0 053e
00000030: 8542 983d 5975 ae3d 016d a13b 1142 1fbd
00000040: 26da a83c 5933 973d 5347 d7bc 048e 973d
00000050: 9e55 043d 78fa 4b3d 0c6c 503d ff9d a83d
00000060: 49c7 793d 21ca c7bc 1de5 2d3d 6a19 d33d
00000070: d633 523e 5daf 3d3d 6c33 413c 9dce e73c
00000080: eaf1 a53d 05c0 023d fd20 953c 7ff2 c03d
00000090: b811 b03d ce93 e83d 476b c83c f870 303a
000000a0: 3757 b33c f49c 703d cf43 d93d 25ff a53d
000000b0: 9189 f93c 5674 0dbd 494f a8bb 9e7d 9b3c
000000c0: be2b fc3d aead f23c e43e 453d 9225 65bc
000000d0: c916 633d 25d2 483d f44b 06bc a2fb bd3d
000000e0: dca5 de3c bf35 9c3c e358 703d d87b d23d
000000f0: 7d1f 3b3d 6637 7bbc 0e9d a63d 12c7 1abd
00000100: d1df 04bd c883 8c3d 2176 01bc fe22 ac3d
00000110: eadc 91bc 91f8 0ebd f906 b1bc cf73 4e3d
00000120: 3233 293d 2bd2 e43d e05d adba f6bc 013e
00000130: 9fad 463c 503a 003d c711 0d3d 0ed2 0a3a
00000140: 4f7e 9e3d c975 943d 364e 053e 5b17 743c
00000150: b850 643d 64be d73c 9fb7 b0bc 4488 c93c
00000160: 34d0 d6bc 5928 b93d 2cad 693d 78cd 8d3d
00000170: 73f5 a13c 523c 133c a8bb 7c3b bfc4 6a3d
00000180: 1039 423d 69bd 2d3d df43 e33c e1da 433d
00000190: 25ef 393d 231d 913d c81c 9b3c 4ecc 5d3c
000001a0: 0227 2d3c f38b eb3d dca1 64bd e01e ad3c
000001b0: 9f1d bf3d 33e7 883d 7c77 123d da10 b5bc
000001c0: 434b 323d eb70 813d 8b15 a03d 301d fdbc
000001d0: d547 bf3d 23e9 3c3d a971 c43d 4f66 1abd
000001e0: a26b c13d 3a4b 7e3d b8a8 c53d 50f4 b83d
000001f0: e0ff 2d3d 4eb8 f83b 8878 d1bc 2329 25bc
00000200: c03f 973d 7c9f 3b3d 24c9 b7bc 7d79 9f3d
00000210: 28ce 203d ccfb 1bbc f364 e03d d7d6 6e3d
00000220: 6537 cc3c 4a2c febc d241 d4bc 4867 b0bc
00000230: 5bb8 b83d 587d 6e3d 78ae 223d 7536 2f3c
00000240: 12db 15bd 4040 67bc e685 193d c62d 8e3d
00000250: d46a 253d a7e1 2cbd 2d58 dcbc 894e 8e3d
00000260: 73b8 1b3d 4c37 31bc 9098 063d 904e f4bc
00000270: ba65 743c 69da 40bc 4992 5ebc 446c d6bc
00000280: d96b 063e 2439 a73d acd5 31bd b847 b9bb
00000290: 254a 853d 8201 cb3d 5d5f b73d ed3a ed39
000002a0: 492d 403a c18d 853c 4062 a23d 70c6 19bc
000002b0: 537b 153d 6024 ed3d 3345 f63c 699c 483a
000002c0: cbba 8a3c 11e9 9d3c a5b6 bfb9 55c7 583d
000002d0: 5137 153c e59a d33d 9f33 14bb 5c01 823d
000002e0: 23d3 37bd c81f 263d 6d15 863b 5fc2 b93d
000002f0: 1ce1 9b3d a7ca 853c 3add 2b3d dda2 233c
00000300: 09fd c63d 0c0f 893c 6d91 bc3d 7b5a 24bd
00000310: 6e5b 1e3d 7f6e 79bc 6638 213d 6c31 b1bc
00000320: 95db e13c baa3 c43c 37a2 173a a138 953d
00000330: e465 fabb 0c97 e13b a999 c7bc a92b d23c
00000340: c030 093d 68bd aa3d 1ccd 993d 9924 78bc
00000350: 6085 7b3b 5727 f13c 168f e63c 1774 283d
00000360: 3f64 38bc 71e6 a43b 97a9 a43d 07e1 443b
00000370: 0acd 43bd b094 893d 032b 8f3d 6c39 853c
00000380: e261 0b3d 649c 953d a92e 3b3b 41f8 403c
00000390: 2b54 063d 4857 683d a097 0dbc ec90 313d
000003a0: 1fd9 9b3d 3ce7 10bd a611 873d edc3 69bc
000003b0: 892a 86bc 6e17 c43d df00 c63d 0b1d a93b
000003c0: 1224 7c3c e3c8 563d addf d83d 06eb a63d
000003d0: 5a18 bbbc bf39 8a3d c9da 573d 0ae5 2f3d
000003e0: edd6 18bd 0bc8 d63d a3b9 8a3d 0f5f 683d
000003f0: 95f2 923c 231b 103c 10a1 333c bf59 b33d

l2.weight f4 [128, 256]
-0.001821977 0.017436774 -0.059049092 0.2147956 0.08362741 0.0030809394 0.05915327 0.064531095
-0.08900776 0.08013589 0.09895369 -0.01623305 0.055466425 0.13681461 0.0030281746 -0.013134816
-0.10178607 0.083616205 0.10970681 0.0013082947 -0.018213663 0.09316036 0.039109904 -0.14578229
-0.010194767 -0.16149445 -0.08693254 -0.07684755 0.06887139 -0.1318067 0.09231402 0.055363145
-0.0907301 -0.0141019495 -0.17756054 0.10038631 -0.099439576 0.07878726 0.028519154 -0.01287496
0.090842254 -0.011462434 0.010344593 0.13664709 -0.011597327 0.121473804 0.007454282 0.12979603
0.11205441 -0.07936225 -0.042789843 0.079555236 0.06406733 0.094368465 0.019904343 -0.019896306
-0.081171796 0.08757784 0.02294406 0.015826022 0.11490831 -0.05384716 -0.10794828 0.013856165
0.17027801 -0.05176879 0.061377235 -0.074656434 0.12476184 0.066618435 -0.0064844363 -0.013794154
-0.023119465 -0.00023847933 0.04941141 0.011574952 1.4778273e-05 -0.0123830745 0.058012392 0.10390115
0.013585442 0.0818694 0.06351779 -0.08434335 0.07397316 0.04906273 0.10433067 0.14322859
0.13046367 -0.049075402 -0.055174354 0.010675176 0.0705116 0.11530078 0.038519334 -0.056024484
0.062741965 -0.098145165 0.103771456 -0.0668484 -0.025249315 0.15373345 0.010836894 -0.13143708
0.118331596 -0.066963285 0.06099905 0.096507646 -0.14972953 0.04300221 -0.044132408 0.054779593
0.019234773 0.03714638 0.15362793 -0.048118472 -0.12582888 0.041987613 -0.036183022 -0.096896276
0.08691799 -0.15027463 0.16456719 0.113389924 -0.121938705 -0.09713718 0.20139483 -0.004137554
-0.08980025 0.030569391 0.07921252 0.013485371 0.018521642 -0.07526611 0.049028244 0.008883413
0.08380846 0.0007819314 -0.018215852 0.11474617 -0.05796713 -0.009608273 0.10026427 0.046807308
-0.0018129586 0.052011658 -0.02337694 0.08440512 0.101128675 0.019239329 0.06317056 -0.07584935
0.021016931 0.088747025 -0.012339142 -0.017447574 0.13089588 0.07933799 0.18488623 0.0272867
0.016196536 0.16779937 0.10952519 -0.036135953 0.030814119 -0.110584855 0.16473387 -0.00678635
0.013469771 0.049458593 -0.011458414 -0.016321477 0.115440995 0.0068525407 -0.014409042 0.07312451
0.097431965 -0.0006513714 0.1532646 0.06985984 0.122045584 0.034152918 0.08928673 0.089687094
0.07089705 -0.057049237 0.007862781 0.08399363 0.19854602 0.06745905 0.006788278 0.0110336365
0.058910146 -0.042565495 -0.075179085 0.12592973 -0.08792317 0.076076746 0.06626939 -0.033383325
-0.11004094 0.012911698 -0.024696372 0.05930265 0.06526457 0.097964354 0.08881783 0.021690672
0.03868844 0.08314781 0.09641395 0.050465904 -0.13370085 0.03110023 -0.14900257 -0.012814091
-0.025859093 0.12594987 0.18129797 0.10601771 -0.09660357 0.011655662 -0.12508895 -0.13052522
0.012370913 0.008653525 0.061560623 0.009677786 -0.07294287 0.07620498 0.03746514 0.060907487
-0.056246623 0.067911 -0.059957903 0.020046398 0.11962689 0.1756805 0.0013309636 0.06926631
0.10159219 0.05704212 0.09549745 0.033919264 0.003150068 -0.049306426 0.08785799 0.026292186
-0.006241411 0.08528006 0.053076353 0.053140048 0.13800308 -0.034540564 0.0064977147 0.22055791
00000000: 67cf eeba 91d7 8e3c 76dd 71bd 61f3 5b3e
00000010: d944 ab3d 96e9 493b b34a 723d e128 843d
00000020: b349 b6bd 491e a43d 3ba8 ca3d 2cfb 84bc
00000030: c330 633d 2119 0c3e 5774 463b 6933 57bc
00000040: 3775 d0bd f93e ab3d f7ad e03d 167b ab3a
00000050: d234 95bc dcca be3d b531 203d f447 15be
00000060: f407 27bc cd5e 25be b009 b2bd 4062 9dbd
00000070: 710c 8d3d 56f8 06be 220f bd3d 77c4 623d
00000080: b4d0 b9bd dd0b 67bc 6ed2 35be 5697 cd3d
00000090: faa6 cbbd 375b a13d 00a1 e93c 7ff1 52bc
000000a0: 810b ba3d efcc 3bbc 5e7c 293c 37ed 0b3e
000000b0: b702 3ebc 42c7 f83d 0d43 f43b 40e9 043e
000000c0: c87c e53d ad88 a2bd 6744 2fbd dbed a23d
000000d0: bb35 833d 4144 c13d 6f0e a33c 94fd a2bc
000000e0: 663d a6bd 035c b33d 2ef5 bb3c 93a5 813c
000000f0: 0c55 eb3d d78e 5cbd fd13 ddbd f804 633c
00000100: 5c5d 2e3e 830b 54bd b266 7b3d 79e5 98bd
00000110: 2383 ff3d 3f6f 883d 657b d4bb e000 62bc
00000120: 0865 bdbc 4f10 7ab9 9e63 4a3d dea4 3d3c
00000130: 33f0 7737 61e2 4abc 679e 6d3d 20ca d43d
00000140: 7995 5e3c 25ab a73d 9d15 823d 35bc acbd
00000150: 3d7f 973d 00f6 483d 51ab d53d 84aa 123e
00000160: 4598 053e 4a03 49bd 81fe 61bd efe6 2e3c
00000170: 6368 903d d122 ec3d 73c6 1d3d ee79 65bd
00000180: dc7e 803d 5500 c9bd 2186 d43d d0e7 88bd
00000190: a7d7 cebc 4d6c 1d3e 3a8d 313c 7197 06be
000001a0: d657 f23d 0c24 89bd 24da 793d cda5 c53d
000001b0: b352 19be 1623 303d 2fc4 34bd 9160 603d
000001c0: 3e92 9d3c cd26 183d a450 1d3e e017 45bd
000001d0: 49d9 00be 34fb 2b3d a634 14bd 8e71 c6bd
000001e0: 0f02 b23d 98e1 19be 4d84 283e fa38 e83d
000001f0: 00bb f9bd dcef c6bd 723a 4e3e 5294 87bb
00000200: 32e9 b7bd a96c fa3c 2c3a a23d bff1 5c3c
00000210: b3ba 973c 1e25 9abd d7d1 483d bc8b 113c
00000220: c5a3 ab3d 87fa 4c3a 6939 95bc 0a00 eb3d
00000230: f16e 6dbd 056c 1dbc 5b57 cd3d 05b9 3f3d
00000240: cca0 edba 2d0a 553d ff80 bfbc 97dc ac3d
00000250: 8d1c cf3d cc9b 9d3c 915f 813d e756 9bbd
00000260: b32b ac3c 00c1 b53d 1d2a 4abc 37ee 8ebc
00000270: 9209 063e f57b a23d d152 3d3e 5c88 df3c
00000280: 99ae 843c 99d3 2b3e be4e e03d 4b03 14bd
00000290: e46d fc3c 507a e2bd ffaf 283e 0860 debb
000002a0: 50b0 5c3c 1895 4a3d 12bc 3bbc 9eb4 85bc
000002b0: 546c ec3d 478b e03b e713 6cbc 4ec2 953d
000002c0: 698a c73d cbc0 2aba 65f1 1c3e ad12 8f3d
000002d0: 09f3 f93d eee3 0b3d f6db b63d dead b73d
000002e0: 7932 913d 76ac 69bd e5d2 003c da04 ac3d
000002f0: a64f 4b3e f827 8a3d 3470 de3b 6dc6 343c
00000300: c44b 713d 2859 2ebd 7ef7 99bd b9f3 003e
00000310: 1011 b4bd 20ce 9b3d 3fb8 873d f4bc 08bd
00000320: 255d e1bd 968b 533c 0c50 cabc 56e7 723d
00000330: 6ea9 853d 89a1 c83d 1fe6 b53d a3b0 b13c
00000340: c577 1e3d 6649 aa3d ad74 c53d 56b5 4e3d
00000350: e0e8 08be e9c5 fe3c 2194 18be 31f2 51bc
00000360: 73d6 d3bc 01f9 003e 2da6 393e d01f d93d
00000370: 18d8 c5bd 64f7 3e3c 5117 00be 67a8 05be
00000380: 5faf 4a3c 84c7 0d3c fe26 7c3d 948f 1e3c
00000390: 1263 95bd 5b11 9c3d 0c75 193d 217a 793d
000003a0: dc62 66bd ec14 8b3d 6b96 75bd 5838 a43c
000003b0: f1fe f43d 97e5 333e ba73 ae3a 7fdb 8d3d
000003c0: 910f d03d ffa4 693d 2b94 c33d edee 0a3d
000003d0: 5f71 4e3b 89f5 49bd e4ee b33d b662 d73c
000003e0: c084 ccbb 50a7 ae3d 9766 593d 61a9 593d
000003f0: ae50 0d3e 687a 0dbd c8ea d43b efd9 613e

l2.bias f4 [128]
0.06731245 0.14659716 0.015288576 0.00055810856 0.025029628 0.10601437 0.13715446 -0.014157323
-0.025098661 0.12807234 -0.035517357 0.05293875 -0.03333016 0.004625087 0.1004957 0.0014306778
-0.048540864 0.083978675 0.11618235 0.10199481 0.09203525 0.08074251 0.06918802 0.12987275
-0.028298905 0.09437426 0.020214615 0.09382486 0.010338592 0.13599233 -0.0016108687 0.05538555
0.0707768 -0.043960392 0.053198416 0.08302644 0.13851553 0.105531745 0.08222917 0.040931404
0.05339269 0.001893441 0.10609917 0.017405694 0.07923227 0.12598446 0.14187421 0.09979754
0.012676876 0.08865165 0.09681507 0.0150524415 -0.054293547 0.12543485 0.054109804 0.02287097
0.07023795 0.054435663 0.12077651 0.09098732 -0.007779696 -0.022284057 0.027199646 0.10807511
0.102839045 0.12208447 0.11487486 0.07678256 -0.011924369 0.13976975 0.0689801 0.11954231
0.034220215 0.098720975 0.11206896 0.040753443 0.00076090085 0.03718337 0.082405165 -0.0021964945
0.022217037 -0.001483055 0.13203727 0.10878118 0.12569161 0.052683763 0.023248322 0.056282636
0.047953498 0.0053078085 0.055573214 -0.03033854 0.019505609 0.054284375 0.08198135 -0.052910626
0.06432593 0.11968306 0.06623862 0.14038968 0.10650584 0.12306455 0.13501985 0.021452582
0.096675485 0.12547946 0.0916316 0.050900675 0.04421583 -0.013611355 0.05738385 -0.04691774
-0.019668324 0.104600884 0.1248616 0.10135234 0.038572785 0.09710141 0.0626066 0.107444815
0.12289624 0.09742178 0.011119129 -0.014456196 0.096530676 0.004752305 0.07722043 0.08533084
00000000: 1cdb 893d 911d 163e ef7c 7a3c 084e 123a
00000010: ef0a cd3c 101e d93d 3872 0c3e 1ef4 67bc
00000020: b59b cdbc 6525 033e a67a 11bd 4dd6 583d
00000030: 3585 08bd 0b8e 973b b1d0 cd3d 9585 bb3a
00000040: c9d2 46bd 03fd ab3d 03f1 ed3d a8e2 d03d
00000050: fa7c bc3d 545c a53d 73b2 8d3d 5dfd 043e
00000060: 1bd3 e7bc 4b47 c13d 1f99 a53c 4027 c03d
00000070: 3363 293c 9341 0b3e c923 d3ba f5db 623d
00000080: 6df3 903d d00f 34bd 95e6 593d c409 aa3d
00000090: 04d7 0d3e 0721 d83d c467 a83d b0a7 273d
000000a0: 4bb2 5a3d 562d f83a 864a d93d 6396 8e3c
000000b0: 8744 a23d 1202 013e 7947 113e a762 cc3d
000000c0: acb2 4f3c ff8e b53d fb46 c63d 849e 763c
000000d0: e962 5ebd fe71 003e 3ea2 5d3d e75b bb3c
000000e0: ead8 8f3d eef7 5e3d ad59 f73d 8f57 ba3d
000000f0: d2ec febb 0e8d b6bc cbd1 de3c 7c56 dd3d
00000100: 479d d23d 6c07 fa3d 8343 eb3d 2d40 9d3d
00000110: 6e5e 43bc cd1f 0f3e 7045 8d3d 99d2 f43d
00000120: 7f2a 0c3d 392e ca3d 6984 e53d 15ed 263d
00000130: 3177 473a 974d 183d 0ac4 a83d 10f3 0fbb
00000140: 8100 b63c 1163 c2ba c734 073e abc8 de3d
00000150: 4db5 003e eeca 573d 4473 be3c 9f88 663d
00000160: e36a 443d 20ed ad3b bda0 633d 8888 f8bc
00000170: 3aca 9f3c 4b59 5e3d d7e5 a73d d0b8 58bd
00000180: 50bd 833d 641c f53d 1da8 873d 50c2 0f3e
00000190: bc1f da3d 4409 fc3d a542 0a3e 53bd af3c
000001a0: ccfd c53d b07d 003e 59a9 bb3d 3a7d 503d
000001b0: a81b 353d 2902 5fbc 540b 6b3d d12c 40bd
000001c0: 771f a1bc fd38 d63d 70b7 ff3d d191 cf3d
000001d0: 7ffe 1d3d 1bdd c63d e437 803d 070c dc3d
000001e0: 06b1 fb3d 1285 c73d 022d 363c aed9 6cbc
000001f0: e0b1 c53d 39b9 9b3b bf25 9e3d efc1 ae3d

l3.weight f4 [50, 128]
0.35582244 -0.355426 0.4259789 0.07692272 0.3218065 -0.06383431 0.06749286 -0.03255268
0.095842265 -0.17500651 0.0320731 -0.10612924 -0.023458647 0.42432055 0.15066099 0.21964617
0.12350402 0.38381803 0.21733266 -0.025448868 0.5610363 -0.04692808 0.34313646 0.32384008
0.12879124 0.31569916 -0.044615574 -0.017989535 0.36006865 -0.11699209 0.015969949 -0.005031419
0.2971721 -0.08396145 -0.17335866 -0.062110666 -0.10061414 0.34560993 0.13552745 0.1373563
0.45122278 0.20914589 -0.14718074 0.2182646 -0.13720588 0.122091666 -0.40295395 0.022779236
0.27099255 -0.17044614 -0.23026533 0.23070262 -0.14248563 -0.09700368 -0.04623283 0.24589159
-0.14770423 0.16328402 0.22541396 0.4874964 0.22791982 0.1326921 -0.04438092 0.39411825
0.06789493 0.099556535 -0.13105378 0.20240247 0.15713412 -0.09365399 0.12643301 -0.30116424
0.21909428 0.026646486 0.06179711 0.36922416 -0.3105199 0.17299846 0.118061885 0.10365407
0.30280235 0.20357428 0.44019493 0.48289606 -0.27857488 0.43223333 0.14961794 -0.16220555
0.20559217 0.19191399 0.20245488 -0.03539728 -0.043384902 0.3698759 0.13687931 -0.029146736
0.19746555 -0.09675076 0.16359232 -0.10606095 0.19855222 0.15690844 0.3811331 0.3755003
0.05534164 0.11359018 -0.16610019 0.15857254 -0.018966597 0.4353828 0.31244707 -0.068004586
0.3014715 -0.12787141 -0.14766076 0.13897043 -0.18202214 0.18448284 -0.0066285124 0.10929296
0.3883067 0.21336669 -0.37197047 0.07741874 0.4038552 0.29599872 0.31971425 0.3341347
0.17349172 0.18134567 0.023664229 0.116797924 -0.08812348 -0.015221594 -0.24812454 0.22001816
0.043711275 0.4372743 -0.08676325 0.3474077 0.19102569 -0.16876386 0.023144443 -0.011167096
-0.010872777 0.17195487 0.117626466 0.031944327 -0.28985894 0.2717215 0.05666098 -0.30096695
-0.16495642 -0.0750014 -0.17502904 0.06640466 -0.23279417 -0.040759105 0.015186864 -0.17264192
-0.062144782 0.13581835 0.20050187 -0.075726874 0.27933004 -0.4026675 -0.12217855 -0.112258814
-0.10197608 -0.034435302 0.35206777 -0.24542418 -0.06977565 0.06120959 0.34405676 -0.34755373
0.036621142 0.30975482 0.25687414 -0.028280133 -0.08969683 -0.28382874 0.25253037 -0.12175124
0.046244897 0.2294158 0.3337422 -0.33980098 -0.076684825 -0.04488334 -0.121251255 -0.30116385
-0.091796815 -0.24084409 -0.28238562 -0.024723424 -0.17759283 0.07885595 -0.32200366 0.018640444
0.3633157 0.31170782 0.11045457 -0.08995131 0.20062506 -0.007013017 0.3930903 -0.018459208
-0.18201806 0.21050079 -0.12529288 -0.026574219 -0.16250719 -0.10251104 -0.2279703 -0.008782895
0.010584429 -0.01420474 -0.12475101 0.045550525 -0.09423221 -0.17095535 -0.2872555 0.0018946378
0.15054576 0.25379026 -0.18550918 0.18391784 0.03082157 -0.17589062 -0.21914682 -0.30260035
-0.17704627 -0.4114135 0.19574332 0.20371789 0.18504407 0.15985414 -0.13539557 0.035632554
-0.10404302 0.18747899 0.17283341 -0.15139818 -0.1774705 0.0002766996 -0.10312437 0.086588606
-0.16012155 0.15528525 -0.0142047 0.27526996 0.0974851 -0.24455383 -0.27518985 -0.14651276
00000000: 5c2e b63e 66fa b5be e819 da3e a989 9d3d
00000010: d2c3 a43e 90bb 82bd b239 8a3d f555 05bd
00000020: f348 c43d e834 33be 155f 033d 495a d9bd
00000030: 592c c0bc 8b40 d93e e046 1a3e edea 603e
00000040: adef fc3d cc83 c43e 748c 5e3e 257a d0bc
00000050: 13a0 0f3f a937 40bd 95af af3e 5ece a53e
00000060: dae1 033e 52a3 a13e d2be 36bd ca5e 93bc
00000070: eb5a b83e 8d99 efbd 69d3 823c 9ade a4bb
00000080: f126 983e fbf3 abbd ef84 31be c167 7ebd
00000090: c90e cebd c9f3 b03e b5c7 0a3e 21a7 0c3e
000000a0: ac06 e73e 572a 563e 8cb6 16be c180 5f3e
000000b0: b37f 0cbe 320b fa3d fb4f cebe 859b ba3c
000000c0: 89bf 8a3e 6f89 2ebe adca 6bbe 4f3d 6c3e
000000d0: c1e7 11be dea9 c6bd a35e 3dbd 01cb 7b3e
000000e0: c73f 17be ed33 273e ebd2 663e 2199 f93e
000000f0: d063 693e 70e0 073e c4c8 35bd dec9 c93e
00000100: 7f0c 8b3d 4ce4 cb3d f632 06be 9842 4f3e
00000110: c4e7 203e aacd bfbd a877 013e 3332 9abe
00000120: 405a 603e bb49 da3c f71e 7d3d f30a bd3e
00000130: 77fc 9ebe 8226 313e 6eca f13d 9648 d43d
00000140: e908 9b3e c775 503e 3b61 e13e 273e f73e
00000150: 5ea1 8ebe b04d dd3e 7235 193e 3619 26be
00000160: c186 523e 1a85 443e 5550 4f3e bdfc 10bd
00000170: 5eb4 31bd 6060 bd3e 172a 0c3e 23c5 eebc
00000180: 6934 4a3e 4325 c6bd bf84 273e 7c36 d9bd
00000190: 4651 4b3e 9bac 203e e123 c33e 9341 c03e
000001a0: eaad 623d f8a1 e83d 2b16 2abe d760 223e
000001b0: d65f 9bbc 7fea de3e 10f9 9f3e fd45 8bbd
000001c0: 795a 9a3e b9f0 02be 6234 17be 444e 0e3e
000001d0: 0364 3abe 12e9 3c3e fe33 d9bb fdd4 df3d
000001e0: 23d0 c63e cc7c 5a3e ea72 bebe b78d 9e3d
000001f0: 1cc6 ce3e 258d 973e 96b1 a33e b413 ab3e
00000200: d0a7 313e aeb2 393e 7cdb c13c c033 ef3d
00000210: 157a b4bd fe63 79bc 5c14 7ebe 714c 613e
00000220: 980a 333d 6be2 df3e eeb0 b1bd 6cdf b13e
00000230: 3d9c 433e 6fd0 2cbe 6a99 bd3c 32f6 36bc
00000240: bb23 32bc f014 303e 25e6 f03d 0ed8 023d
00000250: 6468 94be 151f 8b3e 5815 683d 5718 9abe
00000260: 56ea 28be 569a 99bd d03a 33be 2bff 873d
00000270: 9861 6ebe 05f3 26bd 53d2 783c 0bc9 30be
00000280: 878b 7ebd f713 0b3e 5d50 4d3e b116 9bbd
00000290: 5904 8f3e 6f2a cebe bf38 fabd f3e7 e5bd
000002a0: d6d8 d0bd 080c 0dbd 3a42 b43e 7a50 7bbe
000002b0: 89e6 8ebd e8b6 7a3d 3528 b03e 90f2 b1be
000002c0: 0d00 163d 2f98 9e3e 0285 833e bdab e7bc
000002d0: f9b2 b7bd 0052 91be a94b 813e b758 f9bd
000002e0: 4a6b 3d3d faeb 6a3e 42e0 aa3e 65fa adbe
000002f0: ef0c 9dbd 98d7 37bd 9452 f8bd 2632 9abe
00000300: f8ff bbbd d59f 76be d994 90be c788 cabc
00000310: e5da 35be 3a7f a13d aadd a4be d8b3 983c
00000320: 8404 ba3e 2b98 9f3e 0136 e23d 6438 b8bd
00000330: a870 4d3e 73cd e5bb 2243 c93e c437 97bc
00000340: f162 3abe 858d 573e c74c 00be 2db2 d9bc
00000350: 4968 26be 4ff1 d1bd 0c71 69be 22e6 0fbc
00000360: 506a 2d3c ffba 68bc 757d ffbd 3093 3a3d
00000370: d1fc c0bd eb0e 2fbe 2713 93be 7f55 f83a
00000380: ab28 1a3e ccf0 813e 1ef6 3dbe f554 3c3e
00000390: 847d fc3c ac1c 34be 0668 60be 6fee 9abe
000003a0: 9e4b 35be caa4 d2be f070 483e 6c9b 503e
000003b0: 317c 3d3e ceb0 233e 23a5 0abe 71f3 113d
000003c0: 8214 d5bd 7efa 3f3e 3efb 303e 2008 1bbe
000003d0: d4ba 35be fe11 9139 df32 d3bd 5e55 b13d
000003e0: e7f6 23be 1903 1f3e d4ba 68bc 2ff0 8c3e
000003f0: 45a6 c73d 526c 7abe afe5 8cbe 7107 16be

l3.bias f4 [50]
-9.979667e-05 -0.0320581 0.013346373 -0.057059728 -0.06943193 0.018684521 -0.0021462776 0.08258668
-0.028857341 0.0011761296 -0.076145425 -0.03772644 0.040604264 0.011601172 -0.016308092 0.07094248
0.044712905 0.03178775 -0.08531783 -0.027432365 0.066851415 0.03255531 0.023880476 0.041958824
0.0040796897 0.04020068 -0.06933233 0.03911921 0.03742252 -0.009459899 0.033924855 -0.041164856
-0.01840979 -0.04011307 -0.034137942 -0.048942868 -0.04586746 -0.042581398 -0.00033724835 -0.012305337
-0.03670282 0.04295352 -0.062451206 0.011228792 -0.079600535 -0.07885647 -0.03167547 -0.00654859
0.012160591 0.064117655
00000000: ee49 d1b8 5b4f 03bd bfaa 5a3c 76b7 69bd
00000010: 5432 8ebd 4810 993c 90a8 0cbb 3523 a93d
00000020: 3b66 ecbc 5c28 9a3a 22f2 9bbd 0a87 1abd
00000030: a850 263d d812 3e3c 8c98 85bc 4a4a 913d
00000040: e124 373d df33 023d 1dbb aebd d7b9 e0bc
00000050: 65e9 883d b758 053d fda0 c33c 04dd 2b3d
00000060: ebae 853b 78a9 243d 1cfe 8dbd 773b 203d
00000070: 5b48 193d b1fd 1abc caf4 0a3d 7b9c 28bd
00000080: 21d0 96bc 9a4d 24bd 3ad4 0bbd 5178 48bd
00000090: 85df 3bbd d569 2ebd b5d0 b0b9 539c 49bc
000000a0: b255 16bd 08f0 2f3d d6cc 7fbd f8f8 373c
000000b0: 9b05 a3bd 807f a1bd 23be 01bd 8e95 d6bb
000000c0: 373d 473c 1e50 833d
