size250/rKB_model.pth (torch, 508775 bytes, 6 tensors)

l1.weight f4 [256, 340]
000000 3d 97 2d bd 7d 26 85 3c ca 9b ef ba cc cd d7 3d
       -0.04238056 0.016253704 -0.0018280682 0.105372995
000010 91 52 57 3a d8 3a 5e bc de 10 03 bd fe af c3 bc
       0.00082139025 -0.013563834 -0.031998508 -0.02388763
000020 2a 61 20 3d 89 4a 33 3b 2a 55 bb 3b 15 a1 50 3d
       0.039155163 0.002735766 0.0057169395 0.05093487
000030 7c ed b5 bc 56 80 3a bd a5 08 19 bd f4 c0 c6 3c
       -0.022207968 -0.045532547 -0.03736176 0.02426193
000040 a3 ce 68 3d e6 a9 37 3d 59 93 c0 bc 27 5c 11 3d
       0.05683769 0.044839762 -0.02350776 0.035488274
000050 8a 20 0b 3d 0c 8d 0a bb 2d 85 22 bd 92 dc 06 bd
       0.03396658 -0.00211412 -0.039677788 -0.032925196
000060 b0 e0 91 3c ca c8 fe 3b f0 50 cf bc 6b c2 17 bd
       0.017807335 0.0077754008 -0.025307149 -0.037050646
000070 9a a7 4f bb f5 e6 c7 3c 5b d7 bd 3d 28 e6 ce bc
       -0.0031685592 0.024402121 0.092695914 -0.025256231
000080 6f 4c da 3c 56 46 45 3d 26 2d 78 bd 29 fd 0a bc
       0.026647775 0.04816278 -0.060589932 -0.00848321
000090 8a 0b b5 3c c6 0d 45 ba ed e2 9e bd 8d 74 10 3d
       0.022100229 -0.0007517006 -0.077581264 0.0352674
0000a0 28 bc 2d 3d ad 5a 5a bd 77 1c 2c 3c 62 89 0e bc
       0.042415768 -0.05330913 0.010504833 -0.008699747
0000b0 cc 64 cd bc 0b 5d c0 3c c1 f5 bd bc a2 fc 18 3d
       -0.025072478 0.023481866 -0.023188474 0.037350304
0000c0 9f c7 43 3d f8 e9 f0 3c ef 98 7c bd 3f b2 e7 bc
       0.047797795 0.02940844 -0.061669286 -0.028283237
0000d0 8e ed 7b 3d 1b 5f 3d bd b1 ad 3c 3c 58 39 94 bc
       0.061505847 -0.046233278 0.011516021 -0.01809375
0000e0 7f 84 66 3c 34 59 58 3d fd 2b 3b 3d cb 19 88 3d
       0.0140696755 0.052819446 0.045696247 0.066455446
0000f0 a6 85 81 3d 7e e8 a8 bc 82 6d 73 3c 02 86 f6 bc
       0.063243195 -0.020618673 0.014857652 -0.030093197
000100 ee 0f c8 3c 2f c9 17 bd a5 64 4f bb a3 58 6d 3a
       0.024421658 -0.037057098 -0.0031645682 0.00090540404
000110 03 3a 9e bd 0d 20 e9 bc 99 f6 05 bd fe f6 9d bd
       -0.077259086 -0.028457666 -0.032705877 -0.07713126
000120 e6 59 b5 bc 94 05 bd 3b 30 21 f6 bc 0a 37 29 bd
       -0.022137593 0.005768487 -0.030045122 -0.041312255
000130 53 65 59 3c 79 cd 5f 3c 2f 2e 4e bd d1 9d d2 3a
       0.0132687865 0.013659828 -0.050337013 0.0016068761
000140 a4 b0 5a 3c 58 c6 78 bd ab 63 3d 3d 72 fc 11 3d
       0.0133477785 -0.06073603 0.04623763 0.03564114
000150 55 ea ec 3c 81 e0 52 3d 56 07 1c 3c ed f8 0b 3d
       0.028920332 0.051483635 0.009523233 0.03417294
000160 b1 0a 68 bd ae a9 a8 bd 7b cf a9 3d 71 6f 50 bc
       -0.05665082 -0.08235489 0.08291527 -0.012721882
000170 17 ba 62 bb 82 09 75 3c 35 cd 36 3d bd 9c 84 bd
       -0.0034595781 0.01495588 0.044629294 -0.06475208
000180 78 9a 97 bc 8b b9 90 bb 15 e6 b1 bc 88 c1 ee 3c
       -0.018506274 -0.0044166497 -0.021716157 0.029145017
000190 c6 30 16 3d 7e 40 cc bb 02 5b 80 3d 61 e2 36 3c
       0.036667608 -0.006233274 0.06267358 0.011162371
0001a0 8a 96 69 3c 50 50 ce 3c 84 99 86 3a fc 9b 49 bd
       0.014257083 0.02518478 0.001026914 -0.049221024
0001b0 63 29 10 3d 04 a5 01 3d 31 4a 03 bd 7a ff 40 3d
       0.03519572 0.03165151 -0.032053176 0.04711864
0001c0 8e dc 59 3d 2e b0 73 3c 52 12 f8 b8 3e 13 93 bd
       0.053188853 0.0148735475 -0.00011828974 -0.071814045
0001d0 30 29 fe 38 63 9f 12 3d 0c 1b 05 bc 42 ff 46 3d
       0.000121193356 0.035796534 -0.008124124 0.048583277
0001e0 1d d9 8e bc 06 c0 91 3c 55 d6 d7 3c f7 ef 4d 3d
       -0.017437512 0.01779176 0.026347319 0.050277676
0001f0 9d b6 44 bc 78 a6 19 3c 1c 55 de 3b 0f c5 07 bc
       -0.012006429 0.009378068 0.006785048 -0.0082867285
000200 ec 03 66 3d 44 f0 26 bd 16 92 22 bd 9b da b9 bc
       0.056156084 -0.04075648 -0.0396901 -0.022687247
000210 52 d3 da ba fa a7 38 bd 59 d7 2b bc 0d 68 96 3d
       -0.0016695058 -0.04508207 -0.010488355 0.07344065
000220 71 68 77 bd 30 88 8f 3d 13 23 6f ba 09 61 65 bd
       -0.060402337 0.070083976 -0.0009122353 -0.056000743
000230 ba e2 d1 3c 71 87 93 3d 69 d3 6c 3d 69 9d 0f 3d
       0.025620807 0.07203568 0.057818804 0.035062227
000240 de a6 f2 39 57 a0 d1 3c f3 15 88 3d 22 b7 c6 3c
       0.00046282163 0.025589151 0.066448115 0.024257246
000250 1d 84 07 3d 96 f6 23 bd f2 3e 82 bd 30 2a a1 3d
       0.033084977 -0.040030085 -0.06359662 0.07869375
000260 4b 5e 39 3d ff ad 17 bd 02 64 05 3d 8d 9a 2c bd
       0.04525594 -0.03703117 0.032566078 -0.04213958
000270 04 e1 da 3c f8 4d 01 3d d0 50 6b bc f5 28 62 3d
       0.026718624 0.031568497 -0.014362529 0.05521484
000280 cf ad 85 3d 1c 94 3c bd d1 d0 8c bd b2 e1 af bc
       0.06527292 -0.046039686 -0.06875766 -0.021469925
000290 9b bd 0c bd d0 52 06 3d 61 73 65 bb f9 fb 32 3c
       -0.03436051 0.03279382 -0.0035011398 0.010924333
0002a0 ba 58 44 3d 8d 91 fd 3c 30 44 28 bd d8 c9 5c bb
       0.04793618 0.030953193 -0.041080654 -0.0033689644
0002b0 a6 02 2c 3c 20 df a0 bc 7b f8 c3 bc ea 16 2a 3d
       0.010498678 -0.019637644 -0.023922196 0.04152576
0002c0 5d 43 95 3c 91 ed 5c 3d ff c6 13 3b 53 69 36 3d
       0.018220598 0.0539375 0.002254903 0.04453404
0002d0 12 03 b4 3c 58 17 e1 3c b1 7c c7 bb 3d 97 7a 3c
       0.02197412 0.027476951 -0.0060878624 0.015294847
0002e0 41 0f 89 3d af 78 bc 3c 07 f5 62 bc a5 07 e8 3b
       0.066923626 0.023006765 -0.013852364 0.0070809894
0002f0 61 bc d3 3c b3 70 f5 bc 35 e4 12 3d 71 7f 85 3d
       0.025846662 -0.029960966 0.035862166 0.06518448
000300 2b 43 30 bd 94 6d b8 3c 34 da 5c bc 73 77 c8 3a
       -0.043032806 0.022513188 -0.013479758 0.0015294388
000310 dc 74 14 bd af 99 09 bd 77 77 7a bd c0 1b 45 bd
       -0.03624426 -0.03359383 -0.061149087 -0.048122168
000320 bd 41 2e 3d d3 fd 03 bd f0 24 ee 3c 38 f5 11 bd
       0.04254316 -0.032224488 0.029070348 -0.03563425
000330 26 12 7b bc 8f d0 62 3d 39 3e 95 3c ca 12 c1 bc
       -0.015324151 0.05537468 0.018218147 -0.02356853
000340 da eb 4a bd d6 46 2b 3d 63 28 c7 bc 45 1f 28 bd
       -0.04954133 0.0418156 -0.02431125 -0.041045446
000350 d2 16 77 bc a6 1d 75 3d 35 0d 01 bd ea ce 1e bd
       -0.015081124 0.059842728 -0.031506736 -0.038771547
000360 a3 4f 7c bd cf dc 12 bb f2 5f 91 bc 5a c4 88 bc
       -0.061599385 -0.0022409444 -0.017745946 -0.01669519
000370 bb b6 a3 bc 96 f6 4b 3c c8 3d 60 bd 81 db 87 bd
       -0.019984594 0.012448927 -0.05474642 -0.06633664
000380 d7 eb 06 3d da 0a 27 bd fd 76 55 3d d8 24 80 bd
       0.03293976 -0.040781833 0.05211543 -0.062570274
000390 46 99 94 bc c2 99 5b bd 80 8e b1 3b 58 fb 3e 3c
       -0.018139493 -0.05361343 0.0054185987 0.011656605
0003a0 e5 ee 1e 3d 70 07 6a bd 8b 26 1d bd 87 6a c3 bc
       0.038802046 -0.057136 -0.038366836 -0.023854507
0003b0 8b 8f 29 3d 9e 56 0d bd 93 0a a8 bd bd e8 42 3d
       0.04139666 -0.034506433 -0.08205142 0.047585238
0003c0 c4 2e 76 3d 55 6b 40 3d bf 87 0e 3d 37 5d 6c 3c
       0.060103193 0.04697736 0.034797426 0.014426521
0003d0 15 69 95 3c 35 52 55 bc eb d1 84 ba 78 ed 8e 3d
       0.018238584 -0.013020088 -0.0010133361 0.06978887
0003e0 45 57 84 3c a4 ad 67 3d 09 22 72 bd b5 ff 5e 3d
       0.016154895 0.05656208 -0.05911449 0.05444308
0003f0 4a b6 e7 bc 7c 4d e4 3c 00 90 b5 bc 44 59 ff bc
       -0.028285164 0.027868979 -0.022163391 -0.031170495

l1.bias f4 [256]
000000 2e 94 e2 bc 28 3a aa bc 75 53 83 3d 11 e0 28 bd
       -0.027658548 -0.020779684 0.064124025 -0.04122931
000010 1f ca cb bc d0 5b 59 3d dc 00 3e bb 27 2b ac bb
       -0.024876652 0.053066075 -0.0028992211 -0.0052541676
000020 09 44 a4 3b 2f cd 9f bc fc 67 83 3d e7 bd 25 3d
       0.0050129932 -0.019507019 0.06416318 0.040464308
000030 47 91 7c 3d 65 1a da 3c ee 09 3f bd 9c b7 7e 3c
       0.061661985 0.026623914 -0.04664033 0.015546706
000040 f5 cd a4 3d 7c 31 4f 3c a6 c3 6a 3d 95 d4 ae 3c
       0.08047096 0.012646075 0.05731549 0.021341601
000050 c6 a2 86 3c b5 21 c1 3b f4 59 a3 bc e4 bd 8f 3b
       0.016435038 0.005893911 -0.019940354 0.0043866504
000060 53 cd 76 3d 8d 9a 88 3d ee 5e 9c 3d f4 7e 2f bd
       0.060254406 0.06670103 0.07635294 -0.04284568
000070 6b 83 29 3c a3 9f 9d 3b 10 84 14 3d 59 1d 48 3c
       0.010346274 0.00481029 0.036258757 0.012214028
000080 e6 08 85 3d f2 96 55 3d 97 5b c8 3c 62 42 84 3b
       0.06495838 0.052145906 0.024457736 0.0040362338
000090 06 44 08 bd 77 fa ca 3b 6a ed ab 3d c2 d7 0e bd
       -0.033267997 0.0061944085 0.083948925 -0.03487373
0000a0 3a bb a2 3d a2 59 be 3c ae 6e 8c 3d 8e 9e 86 3d
       0.07945867 0.0232361 0.06857048 0.06573211
0000b0 2b d8 07 bd be 59 da bb 04 45 dc bc f2 50 72 3d
       -0.03316514 -0.00666353 -0.026888378 0.059159227
0000c0 d6 e8 68 3b a6 ce c2 3d da d8 17 bc 4e 89 1d 3d
       0.0035539172 0.09512071 -0.00926801 0.038461022
0000d0 05 08 82 3d bd 7c 92 3b 23 81 cb 3c 9c 10 26 3d
       0.06349186 0.0044704364 0.02484185 0.040543184
0000e0 e1 97 83 3d 14 2f 52 3d dd c1 0f bd 15 d7 92 3d
       0.06425453 0.05131443 -0.03509699 0.0716993
0000f0 37 df 44 bc 0a 85 6f 3d c2 c1 08 3d 28 56 04 3b
       -0.012016109 0.058476485 0.033387907 0.0020192955
000100 8d 56 88 3d ca 8d a3 bc f5 73 ab 3d 44 40 9a 3c
       0.06657133 -0.019965071 0.083717264 0.018829472
000110 ee f7 e9 3c 7b 58 a7 bb 98 bd a4 3d 0e ac b9 3d
       0.028560605 -0.0051069832 0.08043975 0.0906602
000120 d0 28 b8 bb 9d 7a 8e 3d 13 b9 9e 3d ef 67 d0 bc
       -0.0056200996 0.069569804 0.07750144 -0.025440184
000130 a4 a5 47 3c c2 84 3c 3c f5 72 13 bd be 94 98 bc
       0.012185488 0.011506261 -0.035998303 -0.018625613
000140 bf e9 35 3e 62 4d a1 3d 46 5a 93 3d f1 2d a3 3d
       0.17764948 0.07876088 0.07194953 0.07967747
000150 23 9d 68 3d eb 6e ae 3d 74 24 08 bd 01 b1 98 bc
       0.056790482 0.0851725 -0.03323789 -0.01863909
000160 cd ce 93 3d 19 26 9a 3d 69 ae 2c 3d 42 0e 32 3c
       0.072171785 0.07526798 0.042158518 0.010867657
000170 05 4a 34 3d 16 98 1e 3d 22 1b 0a bc 74 c6 58 3d
       0.044015903 0.03871926 -0.0084293205 0.052923635
000180 ce e7 6f 3d 9e 18 97 3d a6 e9 9e 3d c1 19 9a bc
       0.058570676 0.07377742 0.07759409 -0.018811109
000190 e2 47 82 3d 0c b1 a6 bc 3a 6d dd 3b 51 22 43 3d
       0.06361367 -0.020348094 0.0067574056 0.04764015
0001a0 6a 4d 22 3d 9a cf 0f 3d ca 48 d0 3a bd f6 26 bd
       0.03962461 0.035110094 0.0015890833 -0.04076265
0001b0 1c 11 8c 3d 2a bf 8f 3c 03 42 9b 3b cc 79 e9 ba
       0.06839201 0.017547209 0.004738094 -0.0017812788
0001c0 5c 0b 87 bc 6b b5 43 bc 17 b4 74 bc 6c 8a 47 3d
       -0.016484909 -0.011945109 -0.014935515 0.048715994
0001d0 45 4f c2 3d 4a c5 11 3d 90 0f 6e 3d 24 4a 98 3d
       0.09487776 0.03558854 0.05812031 0.07436016
0001e0 2e 7e 7c 3d c8 28 c9 bc aa bf 91 bc 03 5c 5f 3d
       0.06164377 -0.024555579 -0.017791588 0.05453111
0001f0 99 f6 5a bc 80 27 c4 3c cc 4b cc 3d 5b c4 bf bc
       -0.0133644575 0.023944616 0.099753946 -0.02340906
000200 3a 0b a0 3d 50 3b c0 3d a0 4d 4f 3d c5 7f 5d 3c
       0.07814641 0.09386313 0.05061114 0.013519232
000210 1a 6d fc 3d d7 21 30 3d ab c1 3c bc bb 1d 3e bc
       0.12325497 0.043001022 -0.011520783 -0.011603768
000220 8e 58 be 3d 73 3e cc 3c 66 e9 48 3d a9 5c 18 3d
       0.09294234 0.024932122 0.04905071 0.037197743
000230 82 73 71 3d 9e 28 97 3d e5 f3 d2 bc 44 97 95 bc
       0.058948047 0.07380794 -0.025751064 -0.018260606
000240 81 05 86 3d 64 21 fb bc 7f fe 84 3b 06 d8 3d 3d
       0.065440185 -0.03065557 0.0040586586 0.046348594
000250 1e a6 8a bc e1 a7 e3 3d d6 ec 9c 3d ff e7 09 3d
       -0.016924914 0.11116005 0.0766236 0.033668514
000260 33 5b 89 3d d9 46 3a 3d 4c bb 07 3d d7 8c 8d 3a
       0.06706848 0.04547772 0.033137605 0.001079942
000270 24 2a 82 3d 56 fa 20 3d 00 b1 81 3d 24 f9 38 3d
       0.06355694 0.03930124 0.06332588 0.045159474
000280 f8 9d ed bc f1 e4 48 3d 6e ad 61 bc 65 eb 07 3d
       -0.02900599 0.04904646 -0.013774259 0.033183474
000290 a5 5f 83 3d 63 ff ae 3d d5 ac 3c bd 9b c2 ae bb
       0.06414727 0.08544805 -0.046063263 -0.0053332574
0002a0 f1 b0 68 3d db b6 a8 3d f2 f9 a7 3d 4f bf a8 3d
       0.05680937 0.08238002 0.0820197 0.08239614
0002b0 9d d6 87 3d 7c fd 02 3d 10 32 93 3d 73 93 2e 3d
       0.06632731 0.031980023 0.07187283 0.042621087
0002c0 1b a0 8b bc 5d b8 81 3d 65 d2 8e 3d fa 9d 00 bd
       -0.017044118 0.06333993 0.06973723 -0.03140066
0002d0 b3 62 6b bc 9d ef 95 3c 9d fb 9d bb 11 e1 5d 3d
       -0.014366793 0.018302733 -0.0048212544 0.05416972
0002e0 1d 09 7c 3d 45 5d 09 bc cc ad 8b 3d 64 60 1b bd
       0.06153213 -0.008384054 0.068202585 -0.037933722
0002f0 e4 d6 28 3d 0c 41 87 3d 98 57 e4 bc c7 70 a4 3d
       0.04122056 0.066042036 -0.0278738 0.08029323
000300 47 14 b8 3c 23 05 86 bc 94 90 de 3d 34 4a 0d 3d
       0.022470606 -0.016359871 0.1086742 0.034494594
000310 b7 3d 32 bd 66 5c a4 3d d1 94 87 3d 70 05 70 3d
       -0.043515887 0.08025436 0.06620181 0.058598936
000320 7b 9f 19 3c c5 33 9e 3d 89 e5 65 bc 9d 28 c3 bc
       0.009376402 0.07724718 -0.014031776 -0.023823077
000330 af 20 02 bb bd fc 94 3d 86 8c d2 3a 2d 4c a7 3c
       -0.0019855907 0.072747685 0.0016063608 0.020422066
000340 32 d6 54 3d ad 89 51 3d 1f 00 fb bc 40 90 3c bc
       0.051962085 0.05115669 -0.030639706 -0.011509001
000350 67 54 90 3d c7 94 0d 3d 10 59 cd 3d 70 da 79 3c
       0.070473485 0.034565713 0.10026753 0.015249833
000360 df 61 3f bb 39 c6 c7 3c 72 54 89 3d aa a3 e7 3b
       -0.0029202623 0.024386512 0.0670556 0.007069071
000370 4f 75 a8 3d ae d9 e6 3c 90 22 e2 3c 8b 7b 0e bd
       0.082255 0.02817997 0.027604371 -0.03478579
000380 a8 3c fb bc 20 54 a9 3d 0c b6 ce 3d 9d dc ce 3c
       -0.030668572 0.08267999 0.100933164 0.025251681
000390 83 05 58 3d 7d 8b 09 bd fc 18 dd bc 16 a5 ca 3c
       0.05273963 -0.033580292 -0.026989453 0.024736922
0003a0 48 57 02 3d 84 93 24 3d 1b 1b 68 3d b1 86 b2 3d
       0.03182152 0.040179744 0.056666475 0.087170966
0003b0 6a f1 29 3d 37 d3 ac 3d 03 40 50 3d 9e 4d 77 3d
       0.041489996 0.084387235 0.050842296 0.060376756
0003c0 67 a5 44 bc 26 da 7a 3d dc de cc 3c 85 75 5a bc
       -0.012002326 0.0612432 0.025008611 -0.013333683
0003d0 11 31 ba 3c 3c 83 1c bc 5a 42 ea bc aa 20 82 3d
       0.022728475 -0.009552773 -0.028596092 0.063538864
0003e0 6c 75 83 3d a9 17 75 3d 42 87 a8 bc 7a c2 eb bb
       0.06418881 0.059837017 -0.020572308 -0.0071948143
0003f0 6b 93 c6 3c 7f 37 bc bc ef 04 a5 bb c1 59 85 3d
       0.024240216 -0.022975681 -0.0050359885 0.0651126

l2.weight f4 [128, 256]
000000 bb 42 01 bd 52 09 c2 bc 33 66 95 bd 40 82 2f 3d
       -0.03155778 -0.023686085 -0.072948836 0.042848825
000010 fe e2 9c 3d a9 74 0d bd 34 25 8d 3d d9 0c 93 bd
       0.07660483 -0.034535084 0.068918616 -0.07180185
000020 8b 36 2a bd ef 08 b7 3c 17 dd b6 3b ee 5d 5e bc
       -0.041555922 0.022343127 0.005580555 -0.013572199
000030 24 c0 af 3c 09 32 48 bc 2c 6c fa 3a 46 cd 77 bd
       0.021453924 -0.012218961 0.0019105724 -0.0604985
000040 20 a0 78 3d e7 29 b6 3c 31 ec 3a 3d 4e f2 6b bd
       0.060699582 0.022236777 0.045635406 -0.057604127
000050 50 93 08 bc 35 92 16 bb 84 0a 1a 3d ff d5 3c 3d
       -0.008335903 -0.002297533 0.037607685 0.04610252
000060 4e 6a e9 3c 8e a0 0b 3c 6f bb 7b bc a8 a5 3f 3c
       0.028493073 0.008522166 -0.015364512 0.01169721
000070 a7 0c 06 bd 0c d1 73 3d 2f 37 d3 3c 47 56 60 3d
       -0.03272691 0.059525535 0.02578315 0.05476978
000080 ab 63 74 3d 8d 72 31 bd 2b 37 2f bd c4 84 bd bb
       0.059665363 -0.043322135 -0.04277722 -0.005783649
000090 b2 91 bf 3c 31 c5 10 3d ee 6f 8c bd ec ce 4b 3d
       0.023384903 0.035344306 -0.068572864 0.049757883
0000a0 93 09 0c bd 09 d3 0d 3d b4 2d 50 bd d3 b7 46 3b
       -0.03418882 0.034625087 -0.050824836 0.003032197
0000b0 9c b4 b4 3c 34 70 0d bd 20 54 6f 3d 93 6e 25 bd
       0.022058778 -0.034530833 0.058429837 -0.040388655
0000c0 0c 1c 59 3c 14 a7 78 3d 99 6c d4 3c 3b 0e 56 bd
       0.013251316 0.060706213 0.02593069 -0.052259665
0000d0 56 87 d9 3a 5c 26 b9 bc b0 27 21 bd af 85 d5 bc
       0.0016596119 -0.022601299 -0.03934449 -0.026064722
0000e0 56 c8 fd bc 42 d9 99 bc d6 4e 88 bd 1b ff 36 3d
       -0.030979317 -0.018780354 -0.06655662 0.04467688
0000f0 67 c1 fa 3c 0f 13 29 3d 0f ea 32 3d 21 41 49 3c
       0.0306098 0.04127794 0.043680247 0.012283594
000100 87 98 55 3d c2 fd 82 3c dd ad fe bc d8 6d 97 bb
       0.052147415 0.015990142 -0.031088764 -0.0046212487
000110 75 67 91 bd cc 38 ef bc 88 44 0c 3d 5e 6d fb 3c
       -0.07099811 -0.029201888 0.034245044 0.030691799
000120 f1 9b e4 3c 03 bf 09 bb 7b 8e 06 bc 24 1e 2c 3d
       0.02790639 -0.0021018393 -0.008212681 0.04202093
000130 dd e6 1b 3c 65 88 ff bc 6e da 25 bd b9 e3 7c 3d
       0.009515491 -0.031192968 -0.040491514 0.06174061
000140 4f 8f c5 3c 55 f1 30 3d b5 c2 6c 3d ed 05 f3 bc
       0.024116186 0.043198902 0.057802875 -0.029665912
000150 77 db 65 bd 8e ec 4a bc b2 23 d6 3c 29 32 b0 bc
       -0.0561175 -0.012385501 0.026140068 -0.021508293
000160 50 67 50 3d cb 45 5b bd 93 43 9e bc a1 5c 1a 3d
       0.050879776 -0.053533357 -0.019319331 0.037685994
000170 56 fe f1 3b bd 4c 7b 3d a5 f4 17 3d 77 f1 6b bd
       0.0073850555 0.06135248 0.037098546 -0.057603326
000180 09 25 6b 3d 07 53 3b bd 38 e4 69 3d 99 1f 41 bd
       0.057408366 -0.045733478 0.057102412 -0.047149274
000190 db 68 46 3d f0 65 ca bc 99 cf 20 bc f1 25 00 bd
       0.04843984 -0.02470681 -0.00981512 -0.031286184
0001a0 1e 42 93 3b 6b 8a 80 bc f7 6d b0 bd a7 8f 98 bd
       0.004493966 -0.015691003 -0.08614724 -0.074492745
0001b0 bc 0a 72 bd 2b 1d 1a 3d d0 c2 a8 bd fd 96 eb bb
       -0.05909227 0.037625473 -0.082402825 -0.00718963
0001c0 16 c1 0c 3d 04 a4 83 3b a8 03 ea 3c ba d1 49 bc
       0.03436383 0.004017355 0.028566197 -0.012318069
0001d0 6b 75 6a bd 89 83 0f bc ca 55 0a 3c e4 f6 60 bd
       -0.057240885 -0.008759388 0.008443305 -0.054922953
0001e0 b2 e0 13 bd c5 71 4e 3d 4c f2 5a 3c 8f f0 f1 bc
       -0.036102958 0.050401468 0.013363432 -0.029533653
0001f0 ad b9 5b 3d 84 60 76 bd c9 bf a0 bc 56 8b 86 3c
       0.05364387 -0.06015064 -0.0196227 0.016423862
000200 54 19 4f 3b de 57 3e 3d d8 97 b5 3c b0 87 1b bc
       0.003160079 0.046470515 0.022167131 -0.0094928
000210 b2 fc 9a bc 61 2e f4 bc 69 f8 b7 3c 77 3b 60 3d
       -0.018919323 -0.029807271 0.022457318 0.05474421
000220 8d b5 89 bb ce a1 0b bc b0 d8 15 bc 37 0e e4 bc
       -0.0042025507 -0.008522464 -0.009145901 -0.02783881
000230 55 03 76 bd 2e b3 0c 3d ae e6 2c 3d 33 b2 75 3d
       -0.06006177 0.034350567 0.04221218 0.059984397
000240 95 f4 56 3d ef d4 66 3d 64 cf be bc aa 40 9b 3d
       0.052479345 0.056355413 -0.02329225 0.07580693
000250 10 8f 35 bd 83 75 0f bd 73 ff 28 bd b2 e1 47 3c
       -0.04432589 -0.035024177 -0.04125924 0.012199806
000260 c8 69 09 3c f8 b9 e9 bc f6 c1 24 3d df b9 07 bb
       0.008387037 -0.02853106 0.040224038 -0.0020710153
000270 17 dd 93 bd d0 e2 27 3d de f8 d3 bc 26 1e 12 3c
       -0.07219904 0.04098779 -0.025875505 0.008918321
000280 8a 7d 7e bd 76 8d 92 bc 5c 92 7b bc 46 de 44 3d
       -0.062131442 -0.01788972 -0.015354719 0.04806354
000290 43 4e d0 3c 9c 4a 0d 3d bc 3a 86 bd f4 c4 8e 3d
       0.025427943 0.03449498 -0.065541714 0.069711596
0002a0 cb 87 e1 bc 63 c5 15 bd d6 10 31 3d a8 28 90 3b
       -0.027530571 -0.036565196 0.043228947 0.004399378
0002b0 e2 90 c1 bc 0d f7 4e bd d9 ab 28 3d f7 d5 3b 3c
       -0.023628656 -0.050528575 0.04117951 0.011464587
0002c0 f7 2f 83 3c 30 0e 80 3d ff ae 4e ba d6 c4 37 3c
       0.016014082 0.06252706 -0.0007884353 0.011216363
0002d0 5a 2c cc 3c 0a c6 f7 3c 84 e5 8d bd 0b 49 51 3d
       0.024923492 0.0302458 -0.06928542 0.05109505
0002e0 b9 be 32 3d c9 57 fa 3c 22 25 30 3c 80 71 0e 3c
       0.04363892 0.030559437 0.010751041 0.008694053
0002f0 34 e2 f1 bc 00 63 5f 3d 5c 3f ce bc 41 57 3c bd
       -0.029526807 0.054537773 -0.025176696 -0.04598165
000300 26 84 29 3d 02 ec e2 3b 5a 9f f7 3b 90 60 c2 3c
       0.041385792 0.006925107 0.007556838 0.023727685
000310 3e 9c 52 bc 12 35 68 3c 93 5e 78 bd 07 c2 66 3d
       -0.012854634 0.014172809 -0.060637068 0.056337383
000320 ab 5e 81 3c ff f0 9e bc d9 3d 3e 3d a0 4d ff 3c
       0.015792212 -0.019402025 0.0464457 0.031164944
000330 75 ca 07 bd 23 1b c9 bc 96 ad 67 bd f4 ac 21 bc
       -0.033152062 -0.024549073 -0.05656203 -0.009867895
000340 1c a0 1e 3d 87 55 69 bd da 6b 64 3c 95 99 25 3d
       0.03872691 -0.05696633 0.013941729 0.04042967
000350 0c d5 83 3d f1 9b 88 3c 85 3b 0e bd 81 06 ee ba
       0.0643712 0.016675921 -0.03472473 -0.0018159897
000360 ee 68 dd bb c0 cb 1d 3d c6 f7 f6 3c 27 b6 b4 bd
       -0.0067568934 0.03852439 0.030147444 -0.08823805
000370 a6 57 46 3d b7 e4 42 3d 41 52 36 3c 72 11 75 bd
       0.04842343 0.0475814 0.011128009 -0.05983109
000380 27 01 88 bc 86 ae ab 3c 27 b0 e6 bb 24 ba 50 bb
       -0.016602112 0.020957243 -0.007040042 -0.003184923
000390 48 c1 20 3d 39 d9 d1 3b f8 7c fd 3c e0 f0 fd bb
       0.039246827 0.006404069 0.030943379 -0.007749662
0003a0 74 2f a0 3c 5a 03 bd bb 58 b7 32 3d 1b df 26 bd
       0.019553877 -0.005768222 0.04363188 -0.040740114
0003b0 28 8d 0b bd 9f 52 7e 3d 5b 8e 29 bd 69 80 de bc
       -0.034070164 0.062090512 -0.041395526 -0.02716084
0003c0 83 1d 41 bc ba d0 09 bc b1 4c 9b 3b ab b0 60 bd
       -0.011786821 -0.008411581 0.004739367 -0.054855984
0003d0 83 9a 72 bd 80 0b 60 3c a8 9b ec bc b6 23 96 3c
       -0.059229385 0.013674617 -0.028882816 0.018327575
0003e0 24 5d 4f 3d 3e ad 7a 3d db fa 9f 3c b2 bb ca bb
       0.050625935 0.061200373 0.019528797 -0.006186926
0003f0 fd b9 14 3b 39 e3 a8 3b 17 9f 18 bd eb 68 5f bd
       0.0022693865 0.00515404 -0.037261095 -0.054543417

l2.bias f4 [128]
000000 32 e8 5f bd 54 69 85 3d a6 8d 93 3d 55 0d 81 bc
       -0.054664798 0.0651423 0.07204752 -0.015753428
000010 d0 16 22 bb 00 0f be bb ec d7 34 3d c2 74 87 3d
       -0.0024732836 -0.005800128 0.04415123 0.06614067
000020 ae c5 98 3c 9a 4b 01 3e 67 91 a9 3d 8f 07 60 bd
       0.018648949 0.12626496 0.082796864 -0.05469471
000030 c4 16 38 bd ac 53 fa 3b fe f4 a6 3d 34 4a 51 3d
       -0.044943586 0.007639369 0.08152197 0.051096156
000040 13 38 d4 3d 48 c3 41 3d 35 e3 1f bd c7 26 f3 3d
       0.10362258 0.047305375 -0.03903504 0.118726306
000050 bd 3c 4f 3d d2 b8 da 3d d5 e8 b1 3d d6 70 ac bc
       0.050595034 0.10679783 0.08686987 -0.021049898
000060 8b a0 ab 3c 92 93 d0 3d 9b 68 06 3e a8 56 9a 3d
       0.020950576 0.10184397 0.13125841 0.075360596
000070 60 ac 5a 3d 16 71 12 3d a0 5b 8f 3d 26 97 0c 3d
       0.053387046 0.03575238 0.06999898 0.034323834
000080 09 51 60 bb 5b c5 3c bd 1b 21 a3 3d 00 6f 4d bd
       -0.0034227988 -0.04608665 0.07965299 -0.050154686
000090 d7 e2 c9 bc 58 2b e5 3d f1 d9 a7 3c 99 6d a0 3d
       -0.024644298 0.11189908 0.020489665 0.07833404
0000a0 65 94 3f bd 20 d6 88 3d 5d 39 88 3d de 38 95 3c
       -0.04677238 0.06681466 0.06651566 0.018215593
0000b0 b8 8b fa 3d 65 c7 f9 3b 43 2e d9 3d 8a f1 0b bc
       0.122336805 0.0076226466 0.10604527 -0.008541474
0000c0 0d 95 56 bd 06 ec 82 3b c8 e0 26 3d 42 3c c8 bc
       -0.05238824 0.0039954213 0.04074171 -0.024442796
0000d0 fa 4f 9e 3d b4 dc 53 bd f1 63 5f 3d 7d c5 c0 bb
       0.07730098 -0.05172415 0.05453867 -0.0058829174
0000e0 99 08 35 bb 52 c8 82 3d 62 44 9b 3b c0 0a a0 3d
       -0.0027623533 0.06385864 0.0047383765 0.078145504
0000f0 4f 02 7a 3c 82 5e 68 3d 1d e6 06 3e 36 d6 bd 3d
       0.0152593395 0.056730755 0.13173719 0.09269373
000100 79 85 e3 3b 91 ed d0 3d f6 95 d0 3d 9c 02 a0 3c
       0.0069434014 0.10201562 0.10184853 0.019532494
000110 f2 b9 f6 3d 85 f6 97 bc 26 5e f8 3c 63 50 6b 3d
       0.12047185 -0.018550167 0.030318331 0.05744971
000120 1c 8f c2 3d 17 9c 9e 3d 83 69 ba 3d 70 0c ac 3d
       0.09499952 0.077446155 0.09102156 0.0840081
000130 37 f8 af 3d 45 08 0b bd 88 ff 32 3d b3 f1 82 3a
       0.08592265 -0.033943433 0.043700725 0.0009990245
000140 08 e4 dc 3d 0b 1f 93 3d 96 a1 43 bc 12 1a 5b 3d
       0.10785681 0.07183655 -0.011940381 0.05349166
000150 cd b3 49 bd 75 ad 34 3d 78 b0 b5 3d ef ae d7 ba
       -0.049243737 0.044110734 0.08871549 -0.0016455333
000160 cd c8 02 3e 3a 52 41 3d 15 73 8d 3d df 7b e3 3d
       0.12771912 0.047197558 0.06906716 0.11107611
000170 25 ec 61 3d 49 30 01 3e cb a6 87 3d 2a 05 b7 bc
       0.055156846 0.12616076 0.0662361 -0.02234133
000180 5a ec b3 3c 53 f2 47 bd 2a 98 b8 3d 0f 84 7b 3d
       0.021963287 -0.048815083 0.09013398 0.061405238
000190 d9 15 c5 bc eb b3 c2 bc 09 8b 7a 3d c0 01 f5 3c
       -0.02405827 -0.023767432 0.06116775 0.029908061
0001a0 c2 70 9f 3d e4 f9 79 3d aa d8 f1 3b 97 7f ee 3d
       0.07785179 0.06102933 0.0073805647 0.116454296
0001b0 ce b4 cd 3d 04 2b 89 3d e0 4a a5 bc 72 0f b4 3d
       0.100442514 0.06697658 -0.020177305 0.087920085
0001c0 0e d0 e1 3d 5d 91 d9 3c 8e ab ea bc a4 72 4f bc
       0.110260114 0.026558572 -0.028646257 -0.01266161
0001d0 e1 44 df 3d 9d 46 c1 3d 77 89 c0 3d 5f 7a 06 3d
       0.109018095 0.094372965 0.09401219 0.032831546
0001e0 e8 ed d1 3d ad b9 e4 3c e1 eb ae 3d 1a 8c c8 3d
       0.10250455 0.027920568 0.08541084 0.09792347
0001f0 6e 2c 26 bd 10 ae 26 3c 89 e0 b6 3d 0c d0 02 3e
       -0.040569715 0.010173336 0.089295454 0.12774676

l3.weight f4 [50, 128]
000000 a6 b1 cb 3c b8 a8 8d be 3a eb 31 3a 24 7f a6 bd
       0.024864983 -0.27667785 0.00067870656 -0.08129719
000010 3a 45 61 3d 31 0b 90 3c b5 be 54 bd e4 80 8f 3e
       0.05499766 0.017583461 -0.051939685 0.28028023
000020 84 69 c3 bd ef 75 85 3e f2 7b 55 be 9b 73 f7 bd
       -0.0954161 0.2606654 -0.20848063 -0.12082597
000030 b1 5a 0d bd 2e b0 38 be fd 2c 54 3d b1 44 98 be
       -0.03451032 -0.18035957 0.051800717 -0.29739907
000040 61 69 38 3e a0 23 54 be f4 cd 64 bb 6f 16 8d bd
       0.18008949 -0.20716715 -0.0034912797 -0.068890445
000050 ae c9 19 be 7b 2d 25 bd e3 70 2f 3e 0a 1d 65 3b
       -0.15018341 -0.040326577 0.17132907 0.0034959936
000060 ba df 70 bd ce 3c 72 be bf a7 81 be fa a2 0e 3c
       -0.058807112 -0.23656008 -0.25323293 0.008705849
000070 b3 41 0f 3e 45 b0 a3 3c d1 99 55 be f2 2e 5d 3c
       0.13989906 0.019981513 -0.20859458 0.013499962
000080 fd 3c 8b 3d b5 f2 ba 3c 55 94 85 bd 97 5a ac bd
       0.06798742 0.02282081 -0.06522433 -0.08415716
000090 1e 70 11 3d 0d 9e a9 be 99 57 32 3e 7a b5 01 3e
       0.035507314 -0.33128396 0.17416228 0.12666884
0000a0 fb 1e 13 be 03 62 5c 3e 1c b3 df 3d 5c bb 39 3e
       -0.14367287 0.21521764 0.10922834 0.18137878
0000b0 b7 72 73 3e 54 d5 01 3d 02 e1 e6 3d a4 f9 4c be
       0.23774229 0.031697586 0.112733856 -0.20017105
0000c0 12 59 ce 3c 97 ee 0f be ac b4 37 be 78 04 80 3d
       0.025188956 -0.14055859 -0.17940015 0.06250852
0000d0 a8 42 48 be f3 c0 b6 3b fd c6 27 3d 42 77 81 be
       -0.19556677 0.0055772006 0.040961254 -0.252863
0000e0 fd c6 87 bd 9a 69 28 bd d9 d2 7b bc a0 1a 5c bd
       -0.06629751 -0.041116334 -0.015370094 -0.05373633
0000f0 60 df 8c bd 2f 32 3a 3e d4 86 65 3d 5c 57 a8 be
       -0.06878543 0.18183206 0.056036785 -0.3287915
000100 8c 41 6b 3e d5 e9 26 3e a7 52 49 be 93 fd 47 3d
       0.22974223 0.16300137 -0.19660436 0.04882581
000110 b1 c3 92 3d 14 c8 f7 ba de 07 35 3e ad 50 81 be
       0.071662314 -0.0018904232 0.17678782 -0.25256863
000120 f1 88 ae 3a e7 ec 8e be 11 af 9e be 5e 38 6a 3e
       0.0013315958 -0.27915117 -0.3099294 0.22873065
000130 91 84 3a be ba f1 93 bd e4 3f 91 be 76 5a fc 3d
       -0.18214633 -0.0722384 -0.28369057 0.123219416
000140 99 5e c3 3c 87 1b 49 3e 56 37 60 3e 75 9c 6f 3e
       0.023848819 0.19639407 0.21896109 0.23399527
000150 c9 a7 16 bd ca c6 3c 3d fb 7a 0a 3e 87 44 05 3e
       -0.036781106 0.046088018 0.13523476 0.13014422
000160 55 be ed bd 01 8a 85 be 88 ab b1 bc 94 9b 73 be
       -0.116085686 -0.2608185 -0.021688238 -0.23789817
000170 2d 01 45 bd ca 57 81 be ca 61 bb bd 74 8b 91 3e
       -0.048096824 -0.2526229 -0.09149511 0.28426707
000180 fe 08 0f 3d 58 ad 8d bd 3a 8a 54 3e d3 51 9c be
       0.034920685 -0.06917828 0.20755854 -0.30531177
000190 c6 0e 85 3d 50 aa eb 3d 9c e2 24 3e b8 fe 89 3c
       0.064969584 0.11507094 0.1610207 0.016845092
0001a0 f2 a0 07 3e bb ac 52 be 71 d4 55 3e d9 4d 85 bc
       0.1324499 -0.20573704 0.20881821 -0.016272472
0001b0 e7 15 62 3d a7 d2 cb 3d fe 33 4c bc c3 6b 08 3c
       0.05519667 0.09952288 -0.012463568 0.008326474
0001c0 4a 05 5e 3b 5a ca 01 3d eb bb a9 3d b5 0d 0a 3e
       0.0033877664 0.031687118 0.08287796 0.13481791
0001d0 20 2f b6 3e 66 33 a1 bd 3e 40 cb bc b0 87 09 3e
       0.3558283 -0.078711316 -0.024810906 0.13430667
0001e0 68 bb 91 be 40 49 7b be f4 3e e3 3d 74 98 1c 3d
       -0.28463292 -0.24539661 0.11095992 0.038231328
0001f0 78 f0 75 3b 2e 1d 3d 3d 15 4b 88 3e fb 53 ab bd
       0.0037527364 0.046170406 0.26619783 -0.083656274
000200 89 97 b7 3b 52 11 c6 bd 07 8b 39 3e da 69 07 be
       0.005602781 -0.09671272 0.18119441 -0.13223973
000210 e9 dd 12 be f8 fd 5d 3e 13 77 9d 3e a1 b2 66 3e
       -0.14342465 0.21678913 0.3075491 0.22529079
000220 a1 24 8c 3e 06 10 a6 3e 97 c9 9d be 30 a0 47 3b
       0.27371696 0.324341 -0.30817863 0.003046047
000230 9a 34 c4 bd d3 8d ed bd 13 61 4c 3e c4 ac 5b bd
       -0.095803455 -0.115993164 0.19958906 -0.05363156
000240 e3 02 e7 3d c6 3d 5e be e0 9f 0f 3d 1e f7 a7 3e
       0.112798475 -0.21703252 0.035064578 0.32805723
000250 b5 3d 89 be d1 16 95 3c 90 40 6d 3c df ce f5 bd
       -0.2680489 0.018199356 0.014480725 -0.12002348
000260 65 b4 f1 bd b6 69 b1 3d 16 ac 48 3d 44 dd 8c 3e
       -0.11801986 0.08662741 0.04899224 0.27512562
000270 7b 28 80 3e e3 da 9a 3d e8 bc 64 3e 00 6c 63 be
       0.25030884 0.075612806 0.22337687 -0.22209167
000280 84 39 34 3e cd 6f 73 bb ce b0 21 3e 61 67 c7 bc
       0.17600065 -0.0037145496 0.15790102 -0.024341287
000290 1c 16 04 3e 84 77 34 be 92 e7 32 3e 81 3a 00 be
       0.12899059 -0.17623717 0.1747115 -0.12522317
0002a0 ad 5f af bc 2b 5c 72 3e a7 73 80 bd 0e 04 38 bc
       -0.021407926 0.23667972 -0.06272059 -0.011231435
0002b0 80 bf b5 3d c9 fa 37 3c 26 e7 93 3e 4c ef 47 3e
       0.08874416 0.011229225 0.2888729 0.19524878
0002c0 af c0 80 bd 46 f4 5a be b4 46 62 be 1b 4b 37 3e
       -0.062867515 -0.21382245 -0.22097284 0.17899744
0002d0 ca 21 48 be 0e 92 33 be c8 c7 5d bd 74 2a 78 be
       -0.1954414 -0.17536184 -0.054145604 -0.24234945
0002e0 13 00 05 3e 4d 05 b0 bd 35 46 e9 3c 26 84 4f 3e
       0.1298831 -0.08594761 0.02847586 0.20265254
0002f0 95 86 59 bc 67 58 78 3e a8 3d 4b bd ef 7f 36 3d
       -0.013276716 0.24252473 -0.049619347 0.0445556
000300 5e ba a2 bd 4b a4 6c bd 94 05 82 be 6c d0 81 3e
       -0.07945703 -0.05777387 -0.2539488 0.25354326
000310 c6 59 bf bd 9b 15 22 3e 33 d9 91 be 22 14 26 be
       -0.09343295 0.15828554 -0.28486022 -0.16218618
000320 28 b2 6f 3e f3 a3 6c be 7e 7e 1b be 19 e3 14 be
       0.23407805 -0.23109417 -0.15184972 -0.14539756
000330 e3 b1 4b bc 45 4f 13 be 1f 50 1c be 05 84 74 be
       -0.012432548 -0.14385708 -0.15264939 -0.23878486
000340 ec 73 85 be df dc a1 bd 76 41 84 bc b9 55 fc 3d
       -0.26065004 -0.07903456 -0.016144495 0.12321038
000350 53 27 92 3d d3 92 80 be ae b6 0c be 4f 20 d9 3d
       0.07136407 -0.25112018 -0.13741562 0.106018655
000360 c8 9d aa 3d 0e bf ec 3c 1d 62 87 be 09 53 9f be
       0.08330876 0.028899696 -0.26442042 -0.31118038
000370 76 15 d1 bd 70 ef c6 3d 28 54 b6 3d 36 81 9c bc
       -0.102091715 0.09713638 0.0890277 -0.019104581
000380 46 b8 98 3c d2 58 0d bd f3 be 14 be 2e a9 ce bd
       0.018642556 -0.034508534 -0.14525966 -0.10090862
000390 20 2a 13 3e 96 f6 97 bd af a0 8d 3e 0b ea 99 bd
       0.14371538 -0.074200794 0.27661654 -0.07515343
0003a0 f3 97 81 3d 70 32 7e be 86 a5 0c 3e 61 95 45 3e
       0.0632781 -0.24823928 0.13735017 0.19295265
0003b0 32 ef 3d 3d 64 b6 a9 bd 01 fe 63 be 8c b1 0c 3e
       0.046370693 -0.082867414 -0.22264864 0.13739604
0003c0 31 8b d4 3d 30 82 a2 3d 24 0a e3 3c e3 dd 12 3e
       0.10378111 0.079349875 0.027714796 0.14342456
0003d0 85 a1 69 3e 5b e0 87 3e 55 fb b2 3c 49 50 8d 3d
       0.22815521 0.26538357 0.02184836 0.06900079
0003e0 49 57 92 bd ad 58 7b 3e 9c bc cb 3d 0c ae 1f be
       -0.071455546 0.24545546 0.09948084 -0.15593737
0003f0 10 09 05 3c 7a 79 1d 3e 6f 81 28 3e 26 9a 59 be
       0.008119836 0.15378371 0.16455625 -0.21250209

l3.bias f4 [50]
000000 8c 9b bc bc be da 6c bc a8 65 4e 3d 9c 20 ba 3b
       -0.02302339 -0.014456449 0.050389916 0.005680157
000010 51 1c 3e 3d a7 2d 87 3d 7d ec 43 3d bf 6e 26 bd
       0.046413723 0.06600504 0.047832955 -0.04063296
000020 6f 90 dd 3b 57 a5 b2 3d c0 6e 8d 3d 2c 36 29 bd
       0.0067616026 0.08722942 0.069058895 -0.041311428
000030 03 5d 8a bd 94 aa 99 bd a3 73 18 3d 34 82 42 3d
       -0.06756022 -0.07503238 0.037219655 0.047487453
000040 4d ed bd 3b d4 0e 72 bd db a1 89 bd 2c c4 e2 bc
       0.0057961107 -0.059096172 -0.067203246 -0.027681433
000050 1f 52 4b bc 84 db 95 3c 94 7a 9a b9 7c 75 20 bc
       -0.012409716 0.01829315 -0.00029464497 -0.009793635
000060 78 a5 8c 3c d0 c4 99 bd 55 e9 d5 3b 86 a7 9d 3d
       0.017168745 -0.07508242 0.0065280595 0.07697968
000070 c7 c6 40 3c d9 ac c7 3b 15 26 02 bd 97 45 64 bd
       0.011766142 0.006093603 -0.0317746 -0.05573043
000080 a0 63 b3 3c 21 53 31 bd b0 11 8d 3d ab 3e 84 bd
       0.02189809 -0.04329217 0.06888139 -0.064572655
000090 90 34 9a 3b e8 31 54 bd ba 38 82 3d ba db 96 bd
       0.004705973 -0.051805407 0.06358476 -0.07366128
0000a0 cb 27 80 3d 41 ed df 3c d4 f6 5d 3c fa fa 1a 3d
       0.0625759 0.027334811 0.013547618 0.037837006
0000b0 fe 9e aa 3c a3 18 b5 bd 9d 5c d9 3c f5 b3 f6 bc
       0.020827767 -0.0884259 0.02653342 -0.030115107
0000c0 99 88 10 bc d6 ac e3 3b
       -0.00882163 0.006948094
