size250/uni_mr_model.pt (torch, 20479 bytes, 4 tensors)

l1.weight f4 [30, 150]
000000 e1 3d 71 bf dd 5b 0c 3e 2c bf 5b bf 6e 55 ac bd
       -0.94235045 0.13706918 -0.8583858 -0.08414732
000010 69 04 5a be 3e 3a 92 be ce a9 fb be a1 06 ef be
       -0.21290745 -0.2856006 -0.49152988 -0.46684745
000020 c4 33 46 bd 44 a5 65 be 72 c1 6c bf cf 41 bd 3d
       -0.04838921 -0.22426325 -0.92482674 0.092410676
000030 68 f7 5c be ba 8b 86 bf 32 23 8e be 84 e1 d2 3e
       -0.21578753 -1.0511391 -0.27761227 0.4118768
000040 ea 7d 61 3e 12 34 36 bf f9 3d a4 bd 8c 81 5a 3f
       0.22020689 -0.71173203 -0.08019633 0.8535392
000050 b7 a4 ae be 0a 59 30 bf 63 d5 e4 3e 43 2d 86 bf
       -0.34110042 -0.6888586 0.4469405 -1.0482563
000060 a1 59 09 bf cb 30 45 bf 10 ec 77 bf 48 39 a9 be
       -0.5365239 -0.7702758 -0.9684458 -0.33051515
000070 5f e3 73 3f 37 b6 86 3e 51 7f 81 3e c3 fb 19 bf
       0.95268816 0.26310894 0.25292447 -0.6014978
000080 a0 13 78 3f c3 c9 6a 3d 81 e0 a4 be d1 f3 87 be
       0.96904945 0.05732132 -0.32202533 -0.26553205
000090 58 58 2f bf a9 ad 2f bf 54 c3 42 bf 25 1b c7 3e
       -0.68494177 -0.6862436 -0.760793 0.38887897
0000a0 66 26 3a be 28 d8 d3 3e f7 33 e7 bd 9b 01 f1 be
       -0.1817871 0.41375852 -0.112892084 -0.47071537
0000b0 9e 10 4c bf 6b aa 33 bf 9c fc b2 bf 24 36 76 3e
       -0.79712856 -0.7018191 -1.398334 0.2404409
0000c0 3e 73 5b 3e da 09 18 bf 4d 2a 99 3c ec 90 a8 3b
       0.2143068 -0.5939003 0.018696928 0.005144229
0000d0 01 22 b5 3e 8e ca d0 bd b9 11 12 be 28 9c d0 3d
       0.35377505 -0.10194884 -0.14264573 0.101860344
0000e0 b4 99 1a bd b5 93 60 3e 89 d3 96 3d 85 84 53 be
       -0.03774424 0.21931346 0.07364566 -0.20656021
0000f0 8d 86 57 3e c6 3b dd 3d 74 e5 5b bd f3 a3 1e 3e
       0.21047421 0.108024165 -0.05368562 0.15492229
000100 e3 c1 8b 3d d8 f2 41 3c cc 23 a3 be 67 a4 bf bd
       0.0682409 0.011837684 -0.31863248 -0.09357529
000110 22 42 11 be 92 9b e5 bd 34 53 02 3e 05 22 b7 bd
       -0.14185384 -0.11211313 0.12727052 -0.089420356
000120 31 12 2e be df 5a ae 3e 51 08 8e bb a2 1a 71 bc
       -0.16999127 0.34053704 -0.0043344875 -0.014715822
000130 29 a9 47 3e bc 21 d2 bc a8 e6 b5 bd 23 21 8a 3e
       0.19498123 -0.025650851 -0.08881885 0.26978406
000140 fb 1b df 3d 85 59 0b be 3b ac c7 3c 3e 67 9f 3b
       0.10894009 -0.13608368 0.024374118 0.0048646023
000150 0d 8c 40 be 96 88 3f 3e 25 7e 98 3e 74 c6 a0 3e
       -0.18803425 0.18704447 0.2978374 0.31401408
000160 09 40 bf bc ae 78 2a be 73 0c 83 bc 0a e3 32 be
       -0.023345964 -0.16647598 -0.015997147 -0.17469421
000170 57 76 8f be 59 01 27 3d 05 f6 a6 bc e3 de 30 be
       -0.28019974 0.04077277 -0.020380983 -0.17272525
000180 3a c5 e0 bc f8 98 9d 3d 6d 68 56 3e f7 71 2b 3d
       -0.027437795 0.07695192 0.20938273 0.041856732
000190 8d 08 04 3d 1a bf b0 3d af 43 a3 3d 65 70 28 bd
       0.032234717 0.086302 0.07971894 -0.041122813
0001a0 49 74 a2 be 27 2b b9 3e 79 8f 7d 3e 6d 96 23 3e
       -0.31729344 0.36165735 0.24761762 0.15975352
0001b0 8e 28 7a 3e d8 9c b4 be aa 3a 91 3d 9f 0c 81 3e
       0.24429533 -0.35275912 0.070912674 0.25204942
0001c0 7c 62 6b be c9 e9 80 3e ba f0 b1 3d 3c 9e cb 3e
       -0.22986788 0.25178364 0.08688493 0.3976916
0001d0 4b ba d0 be 6e 5a 83 be b1 42 0d bf e2 a8 18 bd
       -0.4076713 -0.2565493 -0.5517989 -0.037270434
0001e0 50 56 0f 3e 20 ba 08 bf 74 c0 6a be 0a 36 21 3e
       0.1399777 -0.53409004 -0.22924978 0.1574327
0001f0 ad 2a 9c bc 95 e0 9d be bb 09 90 3d ab cf a5 bd
       -0.019063318 -0.30835405 0.07033106 -0.0809625
000200 3e cf 07 be 6d 13 02 3f af 91 10 3f f8 96 fb be
       -0.1326265 0.5081089 0.56472296 -0.49138618
000210 1e 8b ab 3e cd 7d cc 3e 5d b8 f5 bd 92 af a2 3e
       0.33504575 0.39939728 -0.11998055 0.31774575
000220 8a 98 73 3e e2 b8 1a 3e e5 d8 e9 3d 2d 7f 09 be
       0.23788658 0.1510959 0.114183225 -0.1342742
000230 ee 61 19 be 51 9b b1 bb ec b9 93 be fa eb 53 bc
       -0.14978763 -0.0054201265 -0.28852785 -0.012934679
000240 8e 88 be bd fa 7f d4 be 67 37 1e be f4 1a 25 3f
       -0.093033895 -0.41503888 -0.15450822 0.6449425
000250 b4 33 9e 3e dc 36 b0 bd 20 6c a4 3e 81 44 4d be
       0.3089882 -0.086042136 0.32113743 -0.20045663
000260 fe bb 54 be 1d 63 10 3e 37 58 b2 be d2 78 39 3f
       -0.20774838 0.14100309 -0.34832928 0.7244998
000270 19 44 7c 3e 20 a3 b0 3e 8e ab 81 3c db 07 92 be
       0.24635352 0.34499454 0.015828874 -0.28521618
000280 88 15 41 be 0b a3 c1 3d ad 7a 16 3e 02 32 a5 b9
       -0.1885587 0.09454926 0.14695235 -0.0003150851
000290 17 98 ca 3d d0 76 11 3f f7 fe 2b bf c4 57 f3 be
       0.0989229 0.5682192 -0.6718592 -0.47527897
0002a0 32 9a 4b bf 4d f7 48 3e 09 ed ec 3e c8 8f 55 be
       -0.7953216 0.19625588 0.46274593 -0.2085563
0002b0 b6 2e ba be 2b fd d2 bd d2 fd 12 3e 4a d7 f9 bd
       -0.36363763 -0.10302194 0.14354637 -0.12199266
0002c0 33 93 71 be 76 cc 8c bc 38 a8 82 be 8b e5 cc 3e
       -0.23591308 -0.017187338 -0.25518966 0.40018877
0002d0 41 3d 3e 3f 58 92 6a bf c1 67 df 3e 28 4b 21 3f
       0.74312216 -0.9162955 0.43633845 0.63005304
0002e0 af c4 09 3e e9 6d ef 3d ff 88 83 3e de f3 1f 3e
       0.13453935 0.116908856 0.25690457 0.15620372
0002f0 34 a1 38 bf c9 ab 16 bf 8e 82 ba be b8 1c b2 3c
       -0.72120976 -0.58855873 -0.3642773 0.02174221
000300 b6 60 36 be 9d 6c 1f bd 90 8b 06 3f ec b0 99 be
       -0.1781033 -0.03892194 0.52556705 -0.30017793
000310 c4 34 b8 be 8d c3 37 3f cf 79 2f 3f 65 44 3c 3d
       -0.35977757 0.7178276 0.6854524 0.045963664
000320 20 ad 8e 3d 6e e4 e6 bd 11 69 09 3f 5e 54 4f 3e
       0.06966615 -0.11274038 0.53675944 0.20247027
000330 f4 36 df bd b5 67 0e be cc bc 56 be 5d 67 a1 3e
       -0.10899153 -0.13906749 -0.20970458 0.31524172
000340 8d cb e9 3c 8a 41 80 be d1 08 f6 3e 6a 52 c0 bb
       0.028539443 -0.25050002 0.480536 -0.0058691995
000350 cc fb 2e 3e 52 0b 6f 3e 86 f4 c2 3e c4 2c 9e be
       0.1708824 0.23344162 0.38077182 -0.30893528
000360 3a 60 83 be 6d 1c 19 3e d1 36 05 3e 62 15 f6 be
       -0.25659353 0.1495225 0.13009192 -0.4806319
000370 ce f1 22 3c 5e fa 77 3e 06 2c 07 be 62 b3 f9 3e
       0.009945346 0.24216601 -0.13200387 0.4876967
000380 c1 48 36 3e ca 2f 98 3e d2 30 02 3f c3 db 81 3e
       0.17801191 0.2972396 0.50855744 0.25362977
000390 b9 56 44 be f2 10 1d 3e 25 31 2e bd 44 a6 11 3e
       -0.19173707 0.15338495 -0.042527337 0.14223582
0003a0 f6 53 90 be d1 6a 43 be cb 45 58 be ad 69 bf 3d
       -0.28189057 -0.19083716 -0.21120374 0.09346328
0003b0 49 8d 88 3e 55 7c ae 3e a4 12 8c 3e 8c c0 58 be
       0.26670292 0.34079233 0.27357972 -0.21167201
0003c0 83 1e e8 3c e4 d2 73 be 2d fd 53 be 9a 89 81 3e
       0.028334862 -0.23810917 -0.20702048 0.25300294
0003d0 d1 1c 4f 3e 4c 16 77 3e 17 bf 8e 3e b5 5f 79 be
       0.20225836 0.241296 0.27880165 -0.24352916
0003e0 ec cd af 3d 99 ca 86 3d f1 56 77 be 10 5f 01 be
       0.08584198 0.06581611 -0.2415426 -0.1263392
0003f0 7c 5f 1a bf 9f de bd be 19 f0 89 3e 9c 67 22 3e
       -0.6030195 -0.3708391 0.26940992 0.15859836

l1.bias f4 [30]
000000 54 1c d0 bd 90 9d 7c 3e 65 db 89 be de cf 8e be
       -0.10161653 0.2466948 -0.26925197 -0.27892965
000010 87 d8 52 be 79 28 1e be 8b 17 de 3d 96 cf ad be
       -0.20590411 -0.15445127 0.10844334 -0.33947438
000020 ec eb 0a be ee 30 22 3e ed 34 35 3f f1 9c 60 3e
       -0.1356656 0.15838978 0.70783883 0.21934868
000030 ad 24 b5 3f c6 4b 10 bf 99 57 39 3e 14 af 71 bc
       1.4151818 -0.5636562 0.18099822 -0.0147512145
000040 bc 76 91 3f d0 96 0f bf e9 20 29 3f 53 ae 73 be
       1.136436 -0.56089497 0.6606584 -0.23796968
000050 93 ac 01 3e 45 36 f8 be 4e 84 57 3e 33 e6 9c 3d
       0.12663488 -0.48478904 0.21046564 0.076610945
000060 95 ed 65 be 2a 70 65 bf 65 ed 80 3e 16 cd 96 be
       -0.22453912 -0.89624274 0.25181118 -0.29453343
000070 69 87 38 3f ff bb df 3e
       0.7208162 0.43698117

l2.weight f4 [1, 30]
000000 e2 ef 3b 40 b0 c6 2d 40 6e 68 0c c0 e8 09 80 c0
       2.9365163 2.715252 -2.193874 -4.0012093
000010 87 98 f5 bf 33 13 63 40 bb 38 97 40 29 64 6f 40
       -1.9187173 3.5480468 4.725675 3.7404883
000020 4c de 6e c0 86 fb 68 40 a0 b8 63 40 7b a7 44 40
       -3.732318 3.6403518 3.5581436 3.0727222
000030 47 28 ad 40 85 19 82 c0 96 e6 23 40 6b 87 a5 40
       5.4111667 -4.065615 2.5609488 5.1727805
000040 8a 0c 8b c0 3b a6 88 bf 4f 5f 70 40 2d e7 4c 40
       -4.3452806 -1.067573 3.7558172 3.2016098
000050 d5 ad 2b 40 f6 20 26 c0 37 2a 6e 40 ad 1d 14 40
       2.6824849 -2.5957618 3.7213266 2.3143113
000060 23 cd 0b c0 be 22 a8 c0 bb 45 89 40 47 d1 69 c0
       -2.1843956 -5.254241 4.289762 -3.6533983
000070 bb 2e a0 40 e1 fc ac c0
       5.0057044 -5.405869

l3.weight f4 [1, 15]
000000 4d db bf 3c c2 db 2d 3e 19 80 44 3e 6a 4d 6b 3d
       0.02342 0.16978362 0.1918949 0.057446875
000010 b7 ac 51 be bd 59 78 be a5 92 82 be 92 3f 17 bd
       -0.20476042 -0.24252982 -0.25502506 -0.03692586
000020 a1 ae 80 3c 20 86 2d 3e 05 77 e4 3c ef ec 3f be
       0.01570827 0.16945696 0.027888784 -0.18742727
000030 0f 7d f5 bd 00 31 ca bd 98 f5 76 be
       -0.11986744 -0.09872627 -0.24117124
