size500/rKB_model.pth (torch, 734055 bytes, 6 tensors)

l1.weight f4 [256, 560]
0.020571176 -0.027269503 -0.021568008 -0.037894886 0.050387304 0.080718644 0.02300983 -0.0018805302
-0.0078611765 -0.00979964 0.02366759 0.008169622 -0.026885282 0.00739788 0.014596559 -0.0018102311
0.016775735 -0.010856006 0.010479893 0.009085948 -0.0025737083 0.043815095 -0.041186724 -0.015637927
0.027751597 -0.023795843 0.021050144 -0.0038042027 -0.0019025792 0.03794198 -0.012772653 -0.018431928
0.04941541 5.9484235e-05 -0.010321367 -0.014027097 0.026289789 0.020121219 0.028029166 0.031801865
-0.0010962394 -0.018649349 -0.043699622 0.0068141925 -0.017732749 -0.03761315 0.018487208 -0.0062458734
0.053719323 -0.024816552 0.048691653 0.011326294 -0.023604821 -0.02698182 -0.0001232289 0.064023815
-0.046776164 -0.024848998 0.042851847 -0.028623117 -0.033305187 0.052439917 0.013705765 -0.03428064
0.0070796227 -0.030265158 0.045431603 -0.0034915698 0.024663381 0.03390531 0.025437038 -0.01048622
-0.039761525 -0.03777776 -0.0031201537 -0.0051604793 0.012102184 -0.029812025 0.005287387 -0.030385703
-0.036536556 -0.04803763 0.008688816 0.038532842 0.05469069 -0.029132966 0.033718962 -0.041752942
-0.02897448 -0.0068343864 0.03333973 0.032317005 -0.0012768509 -0.002826143 0.011942614 -0.018061757
-0.027324034 0.022123152 -0.03491562 -0.026787763 0.031231742 0.003124289 -0.029323785 -0.036542352
0.0049072085 -0.005581639 -0.041917652 -0.027652433 -0.024116179 -0.031853504 -0.004214422 0.031539317
0.015690692 -0.016459467 -0.040776707 0.021819096 -0.05511935 0.018138422 -0.048881356 0.009460809
-0.016769024 0.030749032 -0.01783405 0.013957657 -0.026445108 -0.0032656195 0.014297962 -0.025880976
-0.021079114 0.020367924 -0.039497722 0.005879862 0.010103267 -0.00923673 -0.0048184684 0.029554963
0.03692414 0.017142057 -0.005784123 -0.023247404 -0.043499894 0.009756119 -0.030414462 0.018866723
-0.03803137 0.012419957 0.044528484 0.03079104 0.008166983 -0.02561232 -0.015552891 0.02168369
-0.011663157 -0.037692927 -0.019261476 -0.020292053 0.008515982 0.03651615 0.047221925 0.036552258
-0.032397263 0.0006796664 -0.014164145 -0.009378818 0.029991066 0.010456728 0.050822653 0.012880624
-0.006627134 -0.03828623 -0.0015098772 -0.046570037 -0.025255289 0.012278851 -0.02953766 -0.03533549
0.057608172 0.020881942 -0.0113841 -0.015234692 0.044555757 -0.02278222 -0.005860018 -0.002544029
-0.02979831 0.023678679 0.041324586 -0.0029304195 -0.027592177 0.029578285 -0.03148598 0.011479857
0.027287748 0.0012601865 0.008848425 0.0071081943 0.018210338 0.019371228 0.016920261 -0.03359803
0.021500776 0.010319728 -0.01637747 0.022617033 -0.0039710235 -0.014409526 0.024406996 -0.0033838283
-0.018920938 0.03541685 0.027748981 0.0004967392 -0.018635275 0.0035543197 0.015665855 -0.0055655637
-0.026714684 0.0049041547 0.00028403194 -0.0021402342 -0.018233597 0.031924542 0.0016015868 -0.03334138
-0.046410937 -0.021310223 0.010137541 0.01288353 0.0012426008 0.0054175733 0.02884932 0.04193467
0.041342348 -0.007386196 -0.007786793 -0.026421906 -0.0471024 0.029537203 -0.027364042 0.01789652
-0.022042578 -0.01810248 -0.019561704 0.03618061 0.007468304 0.0020808598 0.0036249787 -0.0071234046
-0.03752858 -0.008929592 0.02863186 -0.0057779104 0.013843304 0.05197822 -0.0061824075 -0.0055577783
00000000: e284 a83c 4b64 dfbc 64af b0bc ab37 1bbd
00000010: eb62 4e3d d14f a53d 1c7f bc3c 1f7c f6ba
00000020: 2acc 00bc ab8e 20bc 89e2 c13c e1d9 053c
00000030: 863e dcbc ea69 f23b 6826 6f3c 4745 edba
00000040: 446d 893c 64dd 31bc dbb3 2b3c 3add 143c
00000050: a9ab 28bb 7577 333d 69b3 28bd 1c1b 80bc
00000060: 5157 e33c 80ef c2bc 5a71 ac3c ee4f 79bb
00000070: f75f f9ba 0d69 1b3d 6444 51bc 8efe 96bc
00000080: d067 4a3d b67e 7938 f31a 29bc e9d1 65bc
00000090: af5d d73c 41d5 a43c 6c9d e53c ac42 023d
000000a0: b1af 8fba 85c6 98bc 60fe 32bd 9749 df3b
000000b0: 4544 91bc 3f10 1abd 7c72 973c 2faa ccbb
000000c0: cb08 5c3d 154c cbbc e670 473d ec91 393c
000000d0: e65e c1bc fa08 ddbc 0237 01b9 eb1e 833d
000000e0: 5d98 3fbd 2090 cbbc 6b85 2f3d 077b eabc
000000f0: 056b 08bd 3dcb 563d 258e 603c db69 0cbd
00000100: 2efc e73b a3ee f7bc 7d16 3a3d d2d2 64bb
00000110: dc0a ca3c 4be0 0a3d 5661 d03c 65ce 2bbc
00000120: fbdc 22bd dabc 1abd 7e7b 4cbb 3d19 a9bb
00000130: 3d48 463c 5938 f4bc d141 ad3b 70eb f8bc
00000140: 5ba7 15bd 1bc3 44bd 895b 0e3c 9dd4 1d3d
00000150: 5803 603d 42a8 eebc e51c 0a3d 2205 2bbd
00000160: e45b edbc fdf2 dfbb 3e8f 083d d65e 043d
00000170: 025c a7ba d036 39bb f4aa 433c 40f6 93bc
00000180: a7d6 dfbc 9d3b b53c ae03 0fbd 0372 dbbc
00000190: b6d9 ff3c dfc0 4c3b 6f38 f0bc 6fad 15bd
000001a0: a6cc a03b 2ee6 b6bb d8b1 2bbd 5b87 e2bc
000001b0: 4b8f c5bc d278 02bd 2219 8abb 5f2f 013d
000001c0: c489 803c 01d6 86bc 7a05 27bd f6bd b23c
000001d0: d4c4 61bd 0797 943c d137 48bd 8201 1b3c
000001e0: 315f 89bc 65e5 fb3c b718 92bc a8ae 643c
000001f0: 69a3 d8bc 0104 56bb 0042 6a3c 5704 d4bc
00000200: 1bae acbc a2da a63c 5dc8 21bd dbab c03b
00000210: 2c88 253c a755 17bc 3ee4 9dbb 401d f23c
00000220: c43d 173d 806d 8c3c be88 bdbb 5771 bebc
00000230: f22c 32bd 21d8 1f3c c027 f9bc 638e 9a3c
00000240: c8c6 1bbd 137d 4b3c 8063 363d 7e3d fc3c
00000250: cfce 053c eed0 d1bc 8ed1 7ebc fea1 b13c
00000260: d316 3fbc e663 1abd 3eca 9dbc 853b a6bc
00000270: 9e86 0b3c f591 153d c76b 413d d2b7 153d
00000280: feb2 04bd a42b 323a bb10 68bc 9da9 19bc
00000290: d3af f53c b252 2b3c 6a2b 503d 4109 533c
000002a0: 6e28 d9bb 06d2 1cbd 12e7 c5ba 39c0 3ebd
000002b0: 2ee4 cebc 3c2d 493c f6f8 f1bc f2bb 10bd
000002c0: 8cf6 6b3d 9b10 ab3c 6084 3abc ee9a 79bc
000002d0: 1980 363d c7a1 babc 6505 c0bb b9b9 26bb
000002e0: 961b f4bc caf9 c13c f843 293d 480c 40bb
000002f0: fd08 e2bc 294e f23c 71f7 00bd 0316 3c3c
00000300: 8e8a df3c d82c a53a fcf8 103c dbeb e83b
00000310: d92d 953c 69b0 9e3c 5c9c 8a3c 179e 09bd
00000320: 6522 b03c 1414 293c 0b2a 86bc 5b47 b93c
00000330: 5c1f 82bb ef15 6cbc 2ef1 c73c 38c3 5dbb
00000340: 1500 9bbc 4211 113d d551 e33c 9a37 023a
00000350: 01a9 98bc 97ef 683b ae55 803c 555f b6bb
00000360: c1d8 dabc 08b3 a03b 1fea 9439 2c43 0cbb
00000370: a05e 95bc 4fc3 023d 56ec d13a f990 08bd
00000380: 6519 3ebd c792 aebc ee17 263c 7115 533c
00000390: c4de a23a e685 b13b 6955 ec3c b0c3 2b3d
000003a0: 9856 293d e707 f2bb 5b28 ffbb c172 d8bc
000003b0: 72ee 40bd 01f8 f13c 8e2a e0bc b99b 923c
000003c0: a392 b4bc a74b 94bc de3f a0bc 1f32 143d
000003d0: adb8 f43b 095f 083b 0d91 6d3b 736b e9bb
000003e0: 91b7 19bd 6c4d 12bc 5d8d ea3c a054 bdbb
000003f0: 06cf 623c 1de7 543d cb95 cabb 061e b6bb

l1.bias f4 [256]
0.044328194 0.046521563 0.05647477 0.060644694 0.010546182 0.05817364 0.012355667 0.06616697
-0.0077146264 0.027558222 0.02924765 0.07353582 0.035343315 0.01560528 0.0633019 0.05575687
-0.0030531813 -0.02179793 -0.010107962 0.0072310376 0.041039277 0.0025625245 -0.02045471 -0.017586043
0.073821284 0.059710544 0.026914556 0.010511524 0.022224464 0.059572544 0.041375067 0.0804838
0.071477525 0.06802227 0.03036823 -0.026671447 -0.034636363 0.04198722 -0.0084489 -0.018866554
0.012135921 0.028135668 0.04829534 0.031690456 -0.004523978 0.06769293 0.04201079 0.07980579
0.03260414 -0.016368568 0.0005864597 0.059999786 0.017766127 0.017806688 -0.022289539 -0.005203277
0.013504308 0.07352427 -0.00092642964 0.07393488 0.06615634 0.057047993 0.047740355 0.034396492
0.019032814 0.03000971 0.043230493 0.043696545 0.05834677 0.05398382 0.033980343 0.043056197
-0.0036171542 0.019085582 0.068642154 0.045365393 -0.0072777523 0.07674305 -0.030368784 0.02528049
0.012854954 0.020578608 0.0117365075 0.04672703 0.05053946 0.020958751 0.03730502 0.067434855
0.020685181 0.03928989 0.063360736 0.018979846 -0.0017233748 -0.00596088 0.04970381 -0.024680594
0.0449168 0.055425406 0.05038597 0.043498676 -0.03002848 0.0075824996 0.06366865 -0.0052317274
-0.0154150985 0.012479178 0.047326848 0.002929222 0.06696538 -0.002464615 0.020464597 0.077008285
-0.017318582 0.033355255 0.02941916 -0.03361342 -0.0016979746 -0.023141967 -0.008781963 0.023063803
-0.009572605 -0.016173877 0.055733804 0.043491047 -0.009698401 0.057152603 0.010276266 -0.011736422
-0.0037457147 0.03653223 0.06772485 0.0039810357 0.057382435 0.03682762 0.04551208 0.050553754
0.04429124 0.0516604 0.034739394 0.0384991 0.04853658 0.02781312 -0.008083832 -0.015737267
0.019184534 0.06735167 -0.018378003 0.06050896 0.011461496 -0.024034226 -0.005177175 0.034126803
0.0019927258 -0.034508467 0.035908125 -0.000662838 -0.021158842 -0.013494251 -0.031295158 0.068518296
0.044525016 0.10340135 -0.023153987 0.0215952 0.0073655923 0.040266905 -0.012451647 -0.038024914
-0.0174239 0.034863684 -0.023165155 0.09237707 -0.03525951 0.013454575 0.0130171245 0.030963369
0.062242966 -0.006177474 0.05199082 -0.03337137 0.05005878 -0.008904058 -0.0063363393 0.060734607
0.046763536 0.06757654 -0.030641967 -0.008597116 0.12242139 0.043336906 0.01940859 0.014811231
0.063632295 -0.023541952 -0.004847319 -0.025482744 0.053339038 -0.009670588 0.063559614 0.025456306
-0.0026196274 0.05735565 0.060537912 0.034601297 0.06315143 0.0802757 0.094114095 0.043597907
0.046062123 0.033772763 0.006609034 0.050432198 0.022749878 -0.0009916621 0.032648265 0.018528743
0.060795296 -0.009186576 0.035422157 0.030311085 -0.0011983449 0.030720878 0.07680341 0.05380801
0.021589458 -0.00046959196 0.020133244 0.07102983 -0.0019585332 0.02662712 0.053897537 -0.0037397381
0.055706806 -0.022196015 0.058922805 0.072301656 0.06599815 0.022283962 0.033674482 0.03926734
0.022020306 0.036894407 0.0010036437 0.056620024 -0.016133955 -0.03142997 0.013126839 0.022788152
0.00067707076 0.025516607 0.041206874 0.032014064 -0.037918396 0.027300702 0.05356423 0.0059616845
00000000: 7b91 353d 658d 3e3d 1752 673d 9266 783d
00000010: e5c9 2c3c 7c47 6e3d 6c6f 4a3c 8c82 873d
00000020: faca fcbb c8c1 e13c c598 ef3c f399 963d
00000030: 27c4 103d 4aad 7f3c 6da4 813d 5161 643d
00000040: e217 48bb 9391 b2bc de9b 25bc 57f2 ec3b
00000050: cd18 283d 07f0 273b a390 a7bc 9b10 90bc
00000060: 9d2f 973d 0b93 743d ea7b dc3c 8738 2c3c
00000070: 1410 b63c 5702 743d e778 293d b1d4 a43d
00000080: cf62 923d 434f 8b3d cbc6 f83c 147e dabc
00000090: dcde 0dbd cbfa 2b3d 416d 0abc 088e 9abc
000000a0: bed5 463c c67c e63c 56d1 453d dacd 013d
000000b0: e13d 94bb 97a2 8a3d 8213 2c3d 3871 a33d
000000c0: eb8b 053d 6017 86bc a5bc 193a 56c2 753d
000000d0: 458a 913c 55df 913c 8d98 b6bc 4080 aabb
000000e0: 2c41 5d3c e493 963d a4db 72ba 2c6b 973d
000000f0: fa7c 873d 28ab 693d 648b 433d 56e3 0c3d
00000100: b4ea 9b3c ecd6 f53c 7512 313d 26fb 323d
00000110: 06fd 6e3d 231e 5d3d f92e 0b3d b25b 303d
00000120: c70d 6dbb 5e59 9c3c 4294 8c3d 10d1 393d
00000130: 367a eebb 762b 9d3d f5c7 f8bc 0819 cf3c
00000140: 969d 523c 7894 a83c 7b4a 403c d864 3f3d
00000150: 7702 4f3d b0b1 ab3c 26cd 183d 491b 8a3d
00000160: f873 a93c 70ee 203d 46c3 813d 9f7b 9b3c
00000170: dde2 e1ba 7c53 c3bb 3996 4b3d f52e cabc
00000180: aefa 373d c005 633d 8561 4e3d ab2b 323d
00000190: 49fe f5bc 9e76 f83b b664 823d e96e abbb
000001a0: 9c8f 7cbc 7775 4c3c ccd9 413d 31f8 3f3b
000001b0: 2525 893d 6185 21bb 5fa5 a73c 85b6 9d3d
000001c0: b3df 8dbc 859f 083d 7300 f13c 3aae 09bd
000001d0: 938e deba 3994 bdbc 39e2 0fbc 4df0 bc3c
000001e0: 6ad6 1cbc 147f 84bc 2149 643d ab23 323d
000001f0: 0be6 1ebc d918 6a3d c95d 283c 1f4a 40bc
00000200: aa7a 75bb d2a2 153d 53b3 8a3d 5973 823b
00000210: d809 6b3d 8fd8 163d e06a 3a3d 7411 4f3d
00000220: bb6a 353d db99 533d e54a 0e3d 3bb1 1d3d
00000230: 4bce 463d 57d8 e33c 0d72 04bc 71eb 80bc
00000240: e228 9d3c acef 893d 778d 96bc 3ed8 773d
00000250: 00c9 3b3c 6de3 c4bc 4ba5 a9bb 8cc8 0b3d
00000260: 6498 023b c058 0dbd 6614 133d 4ec2 2dba
00000270: 4f55 adbc fe16 5dbc 5a2f 00bd 5253 8c3d
00000280: dd5f 363d 16c4 d33d 6ead bdbc 6be8 b03c
00000290: 115b f13b e9ee 243d fe01 4cbc 03c0 1bbd
000002a0: 91bc 8ebc 39cd 0e3d dac4 bdbc 3030 bd3d
000002b0: 476c 10bd 9470 5c3c c745 553c e4a6 fd3c
000002c0: 7bf2 7e3d 686c cabb 53f4 543d 6bb0 08bd
000002d0: 6f0a 4d3d 53e2 11bc 11a1 cfbb dac4 783d
000002e0: 1f8b 3f3d 9265 8a3d dd04 fbbc ebda 0cbc
000002f0: 11b8 fa3d 0a82 313d c3fe 9e3c ceaa 723c
00000300: a651 823d 0ddb c0bc 42d6 9ebb 30c1 d0bc
00000310: 097a 5a3d 6371 1ebc 8b2b 823d be89 d03c
00000320: 0eae 2bbb c2ed 6a3d 9af6 773d 17ba 0d3d
00000330: 8955 813d 9667 a43d e4be c03d b893 323d
00000340: a3ab 3c3d 4f55 0a3d 9890 d83b fe91 4e3d
00000350: f45d ba3c a9fa 81ba 30ba 053d 97c9 973c
00000360: 7d04 793d 4b83 16bc d316 113d f44e f83c
00000370: c811 9dba 5aaa fb3c 1b4b 9d3d ca65 5c3d
00000380: 60dc b03c 9133 f6b9 79ee a43c 1678 913d
00000390: bc5a 00bb 1e21 da3c aac3 5c3d 6516 75bb
000003a0: d22c 643d 6bd4 b5bc 0a59 713d e412 943d
000003b0: 0a2a 873d db8c b63c 41ee 093d cad6 203d
000003c0: ee63 b43c 971e 173d b28c 833a 66ea 673d
000003d0: 5b2b 84bc b6bc 00bd f411 573c 38ae ba3c
000003e0: 737d 313a 3408 d13c 8ac8 283d 2e21 033d
000003f0: 5250 1bbd b9a5 df3c 2b66 5b3d 3c5a c33b

l2.weight f4 [128, 256]
0.040221762 -0.022794336 -0.016177941 -0.019718133 0.0039916495 0.052556667 0.015806135 0.06283176
-0.051063392 -0.006244436 0.02012027 0.009085198 -0.052260052 0.008215024 0.019865073 0.02438671
-0.081807815 0.079100356 -0.020050941 0.017386021 0.06144265 0.022466978 -0.084875956 0.06449919
0.012799669 0.086578235 -0.08180901 0.04687619 0.06342446 0.014541152 0.042921323 0.10310271
0.045736913 0.044467874 -0.022336995 -0.09406493 -0.09653885 0.07206213 -0.027869191 0.03719406
0.01747246 -0.028566089 -0.0013200999 0.033559307 0.0032496166 0.045680948 0.04790735 0.010352873
0.024575347 0.11442302 0.037223242 -0.012570771 0.07768269 0.10963498 0.03436437 0.0771504
0.05565577 0.09016528 0.01791116 -0.026335614 -0.008518788 -0.07956093 -0.012444933 0.021548381
-0.083738275 -0.04519385 0.037984133 0.012378856 0.03856312 -0.018518282 0.017897626 0.072714
0.003103068 0.04105242 0.08632779 0.03947401 -0.08460053 0.050356906 0.02947553 0.010669385
-0.045632042 0.09523628 0.05690145 0.02657159 -0.010704661 0.049138147 0.08242367 -0.062133126
-0.062668465 0.01277501 0.045586754 0.08694321 -0.07843365 0.085243404 0.060954846 0.044129893
-0.0635772 0.0077639422 -0.081736416 0.068377525 -0.030824704 0.03622087 0.02396297 -0.0043307818
0.054695744 -0.07166309 -0.06824459 0.06751931 0.045459352 0.010505772 -0.063921265 -0.024522964
-0.071964495 -0.006398124 -0.085666664 -0.006224349 -0.0155505845 -0.03194451 0.067133084 0.011793067
0.052794367 -0.056366276 -0.058025442 0.045045897 0.05362098 0.07282554 -0.03031561 -0.03973311
0.026633393 0.03513732 0.0011115023 0.04534824 0.05487829 -0.007933543 -0.02811668 0.028185174
-0.024068013 0.016593179 0.025416374 -0.01010933 0.0779819 0.1112133 0.0012228233 -0.040429324
0.040325396 -0.048183523 -0.057944268 -0.054242853 0.095714636 0.026709175 -0.053268045 0.021882532
0.02643428 -0.08978806 -0.014124866 0.06685579 0.10723949 0.016898822 0.008978533 0.09769635
0.040408924 0.028831078 -0.07097034 -0.006421338 -0.016668169 0.04252901 -0.064071655 -0.09467007
0.017325362 -0.018422341 -0.08751031 0.0036235088 -0.026200082 0.046326593 -0.044710882 0.0039667324
0.082279265 0.08599618 0.047008276 0.010058963 -0.05640503 -0.04411125 -0.015809324 0.07009284
-0.07322331 0.0044539473 0.08735803 -0.107790686 0.052071046 -0.08422208 0.06100581 0.084770724
0.092435576 0.09743164 -0.091782294 0.046829384 -0.02149377 -0.008200766 0.054871295 0.07117005
-0.02913397 0.0037505943 0.05933355 -0.07622176 0.06213081 0.049927972 0.03595106 0.09916664
-0.0576395 0.07795489 -0.06071199 0.022240434 0.037129063 -0.026576022 -0.07920629 -0.032132648
-0.03642967 -0.0016189133 0.05694948 -0.087124504 0.06514132 0.025536738 0.064976744 -0.051641498
-0.05363036 -0.050300565 -0.048681978 0.014482504 0.007046758 0.1043913 -0.018605482 0.015575013
-0.009744804 0.0087259095 -0.076050594 0.011578322 -0.0010485904 -0.04080078 0.0149338525 -0.012039677
0.057614993 0.04251607 0.031841524 -0.043120258 0.031833712 0.022302963 0.08543283 -0.0063452655
-0.05088803 0.0036738373 0.006389312 -0.028833048 0.056531623 0.011273708 0.10756446 0.110304594
00000000: 93bf 243d 30bb babc 9a87 84bc ec87 a1bc
00000010: 62cc 823b a945 573d de7b 813c f0ad 803d
00000020: d927 51bd 209e ccbb 44d3 a43c 15da 143c
00000030: a30e 56bd 4f98 063c 14bc a23c a3c6 c73c
00000040: db8a a7bd 5eff a13d df41 a4bc 216d 8e3c
00000050: 4aab 7b3d ab0c b83c 72d3 adbd 2718 843d
00000060: b4b5 513c ee4f b13d 7b8b a7bd 3f01 403d
00000070: afe4 813d 033e 6e3c 45ce 2f3d 8327 d33d
00000080: a156 3b3d f223 363d 13fc b6bc 1da5 c0bd
00000090: 29b6 c5bd 4f95 933d ee4d e4bc cc58 183d
000000a0: 6822 8f3c 6e03 eabc 3407 adba 7c75 093d
000000b0: 85f7 543b f21b 3b3d 7f3a 443d 199f 293c
000000c0: 3d52 c93c 9e56 ea3d 6677 183d a3f5 4dbc
000000d0: 1a18 9f3d 4e88 e03d a7c1 0c3d 0701 9e3d
000000e0: 4ef7 633d 93a8 b83d 6dba 923c c9bd d7bc
000000f0: 6392 0bbc d7f0 a2bd d5e5 4bbc 3b86 b03c
00000100: f97e abbd 301d 39bd 4095 1b3d afd0 4a3c
00000110: 5df4 1d3d a7b3 97bc 0b9e 923c 14eb 943d
00000120: d85c 4b3b 9526 283d a0cc b03d 80af 213d
00000130: 0b43 adbd 0b43 4e3d ab76 f13c a5ce 2e3c
00000140: aae8 3abd 3d0b c33d 7f11 693d aaac d93c
00000150: 9a62 2fbc 1545 493d becd a83d 4e7f 7ebd
00000160: 5358 80bd 474e 513c 2db9 3a3d 480f b23d
00000170: d2a1 a0bd 1894 ae3d caab 793d 8cc1 343d
00000180: c334 82bd ab68 fe3b 6c65 a7bd 8409 8c3d
00000190: 1784 fcbc 565c 143d fe4d c43c 3be9 8dbb
000001a0: a508 603d 19c4 92bd d2c3 8bbd 9047 8a3d
000001b0: 9633 3a3d 6720 2c3c 27e9 82bd 62e4 c8bc
000001c0: 1f62 93bd 5ba7 d1bb 0172 afbd a0f5 cbbb
000001d0: e1c7 7ebc 3fd8 02bd 127d 893d b537 413c
000001e0: e83e 583d 53e0 66bd 16ac 6dbd 0c82 383d
000001f0: aca1 5b3d 8f25 953d 7158 f8bc 30bf 22bd
00000200: 462e da3c 27ec 0f3d d4af 913a 13bf 393d
00000210: 0fc8 603d b1fb 01bc f454 e6bc 98e4 e63c
00000220: 482a c5bc 6bee 873c 0036 d03c 9aa1 25bc
00000230: f9b4 9f3d ccc3 e33d 2447 a03a 3899 25bd
00000240: 3e2c 253d 165c 45bd f856 6dbd c12d 5ebd
00000250: 0906 c43d 33cd da3c 982f 5abd ff42 b33c
00000260: b48c d83c cde2 b7bd fb6b 67bc b0eb 883d
00000270: 61a0 db3d 666f 8a3c b21a 133c 0615 c83d
00000280: d483 253d 272f ec3c e658 91bd 166a d2bb
00000290: af8b 88bc e632 2e3d 0038 83bd 62e2 c1bd
000002a0: ebed 8d3c 73ea 96bc 9b38 b3bd 6478 6d3b
000002b0: 8ea1 d6bc f4c0 3d3d c222 37bd 5dfb 813b
000002c0: 0882 a83d c41e b03d c08b 403d 59ce 243c
000002d0: f608 67bd 00ae 34bd 8e82 81bc d68c 8f3d
000002e0: 1af6 95bd 6bf2 913b c4e8 b23d 5dc1 dcbd
000002f0: 7348 553d a07c acbd 3ae1 793d 469c ad3d
00000300: dd4e bd3d 3d8a c73d 5bf8 bbbd 2bd0 3f3d
00000310: b413 b0bc 815c 06bc b9c0 603d 9ac1 913d
00000320: 5daa eebc 88cc 753b bd07 733d 271a 9cbd
00000330: e07c 7e3d 4681 4c3d 6b41 133d e117 cb3d
00000340: 6517 6cbd d0a6 9f3d 23ad 78bd 9231 b63c
00000350: a514 183d f5b5 d9bc e836 a2bd 869d 03bd
00000360: 4737 15bd b731 d4ba dc43 693d 556e b2bd
00000370: d068 853d 6c32 d13c 8712 853d 0986 53bd
00000380: 82ab 5bbd f707 4ebd c166 47bd 0648 6d3c
00000390: 7ee8 e63b 1bcb d53d 866a 98bc 572e 7f3c
000003a0: aca8 1fbc 1ef7 0e3c 6ac0 9bbd 01b3 3d3c
000003b0: db70 89ba b81e 27bd 1ead 743c 1142 45bc
000003c0: b3fd 6b3d 5525 2e3d 426c 023d de9e 30bd
000003d0: 1164 023d b4b4 b63c 68f7 ae3d f2eb cfbb
000003e0: f86f 50bd c3c4 703b 6f5d d13b 4933 ecbc
000003f0: b48d 673d 5cb5 383c c14a dc3d 60e7 e13d

l2.bias f4 [128]
0.10402857 0.07516357 0.12526429 0.109716624 0.020651544 -0.011124269 -0.008139957 0.070052415
0.097068444 0.09516415 0.085265845 0.10086265 -0.04169711 0.0148826325 0.05999232 -0.032020394
0.007855082 0.07239128 0.10395158 0.020513069 0.06759415 0.031740487 0.08489766 0.1160389
0.050665032 0.07118923 0.08209582 0.07710254 0.061427783 0.098266274 -0.013246466 0.04849852
0.07388532 0.09082149 -0.014325351 0.0012631555 0.048114456 -0.003435681 -0.029727604 0.10807319
0.047271535 0.10231734 0.08614962 -0.054989614 -0.042537518 0.10351853 -0.0045481278 0.08873108
0.037381742 0.08825767 -0.007843377 -0.0065731285 0.058923975 0.07436413 -0.0033634393 0.09784438
0.007769652 0.045071054 0.07889365 0.0637561 -0.053059947 -0.002452831 -0.026954368 0.09037025
0.06022562 0.09679498 -0.056852967 -0.061348315 0.07877095 -0.0058100787 0.0670765 0.09859857
0.0004100991 0.057493195 0.11744477 0.0051792744 -0.048670724 0.08447884 0.045827154 0.0769116
0.09594693 0.06679291 0.12682818 0.018887848 -0.032721482 0.0149329435 0.041911837 0.036619086
0.08238956 -0.017346619 0.09131416 0.027491253 0.06909764 -0.021245046 0.055101473 -0.028594203
0.08301409 0.09759416 0.030994117 0.04651901 -0.017449267 0.0031804466 -0.013357168 0.06127601
0.09588376 -0.0019447837 -0.03432256 0.081136756 0.045068674 -0.028821189 -0.04493147 0.031234864
0.030038211 0.048358705 0.09613196 0.007712207 -0.03996897 0.07443827 0.0301654 0.09330144
0.09816469 0.012627117 0.086451426 0.096087866 0.07545203 0.09930843 -0.052525856 0.049081877
00000000: ee0c d53d 5cef 993d 4845 003e 1cb3 e03d
00000010: 6d2d a93c 9142 36bc 745d 05bc a477 8f3d
00000020: d2cb c63d 6ce5 c23d dc9f ae3d 1491 ce3d
00000030: 97ca 2abd 49d6 733c 82ba 753d d127 03bd
00000040: 9ab2 003c e141 943d 91e4 d43d 060b a83c
00000050: cd6e 8a3d 5002 023d d3de ad3d cea5 ed3d
00000060: 2386 4f3d a9cb 913d da21 a83d f0e7 9d3d
00000070: b39b 7b3d d43f c93d b507 59bc 62a6 463d
00000080: 3051 973d 9e00 ba3d e1b4 6abc 7790 a53a
00000090: aa13 453d 2a29 61bb 4e87 f3bc 7a55 dd3d
000000a0: cc9f 413d c18b d13d 366f b03d ca3c 61bd
000000b0: d23b 2ebd 8601 d43d 7608 95bb a4b8 b53d
000000c0: 991d 193d 70c0 b43d 8281 00bc 6663 d7bb
000000d0: 445a 713d 394c 983d 266d 5cbb a262 c83d
000000e0: 9198 fe3b 6d9c 383d fe92 a13d 8f92 823d
000000f0: 6355 59bd adbf 20bb 68cf dcbc 0a14 b93d
00000100: 24af 763d 723c c63d a8de 68bd 5f48 7bbd
00000110: aa52 a13d 7962 bebb 675f 893d 0cee c93d
00000120: 9202 d739 fc7d 6b3d e286 f03d e7b6 a93b
00000130: f45a 47bd 3e03 ad3d 41b5 3b3d d483 9d3d
00000140: d37f c43d b9ca 883d 3fdf 013e b0ba 9a3c
00000150: f606 06bd 4ea9 743c bfab 2b3d e5fd 153d
00000160: dcbb a83d 7f1a 8ebc eb02 bb3d 5635 e13c
00000170: 1083 8d3d 170a aebc 15b2 613d 643e eabc
00000180: 4b03 aa3d 72df c73d 60e7 fd3c b88a 3e3d
00000190: c4f1 8ebc 0a6f 503b 06d8 5abc 8efc 7a3d
000001a0: b45e c43d 1de8 feba d095 0cbd 072b a63d
000001b0: ee99 383d 6a1a ecbc 100a 38bd 42e0 ff3c
000001c0: b212 f63c c713 463d d5e0 c43d aeb6 fc3b
000001d0: 81b6 23bd 1773 983d 6e1d f73c d314 bf3d
000001e0: 920a c93d f8e1 4e3c 720d b13d b7c9 c43d
000001f0: 9886 9a3d 3862 cb3d 5a25 57bd 140a 493d

l3.weight f4 [50, 128]
0.14132433 -0.13772197 0.2620904 -0.16694835 -0.15521787 0.11768292 -0.16689007 0.017239226
0.19528288 0.06952666 0.19739532 0.042150922 0.061558645 -0.11701141 0.3061927 -0.063961186
0.22126533 -0.00023887759 -0.28415734 0.11260799 0.16487898 0.11362512 -0.17804813 0.1700005
0.20851213 0.024121705 -0.10224655 -0.1968345 0.12675066 -0.049461853 0.16340688 0.220814
0.14372592 0.079745986 0.10303653 0.009930929 0.22236922 -0.07710668 0.085527144 0.108657576
0.02022908 -0.044280764 0.17612635 0.04129893 -0.053932887 -0.1386219 0.038730543 0.1352061
-0.045267288 0.18182369 -0.029925944 -0.1856606 -0.2132445 -0.18685989 0.0053019812 0.08950249
-0.13436614 -0.22749771 -0.055634066 -0.11084881 -0.063038014 0.122015186 -0.0017496614 0.014720913
0.23322704 0.0570076 0.105168164 -0.10543893 0.2135126 -0.061455883 -0.24805865 0.04352918
-0.030713713 -0.111890055 -0.025637198 0.040452138 0.07578703 -0.0738511 0.0134863835 -0.038728543
-0.00038848715 0.12564242 0.09124081 -0.112009756 0.01006787 -0.06298636 -0.038177483 0.12592925
0.17387749 -0.05009427 0.07358153 -0.0120675415 -0.11489481 -0.17636308 0.19294351 -0.0019105879
-0.21101838 0.17495063 0.25356048 -0.012284363 0.0068060663 0.098158434 0.016968077 0.14765505
-0.2954466 -0.10459037 -0.057376307 -0.07379779 -0.081315644 -0.03176816 0.06803057 0.023047203
0.1179243 0.22719164 -0.23322573 -0.13429475 0.12689269 0.17453764 0.031722654 -0.12092642
-0.07413913 -0.0028371513 0.14974396 0.033714287 0.2625745 -0.28474328 0.06399016 -0.055984832
-0.1914871 -0.118376285 -0.055830125 0.0033748788 0.13985366 -0.07478877 0.07238165 -0.23748444
-0.15225832 0.04137022 0.050295383 0.20107466 -0.082015075 -0.15632011 -0.085249096 0.038702253
-0.17773283 0.20173173 0.0673025 -0.17302246 0.0472333 -0.10772663 0.2018346 0.09413883
-0.045482237 -0.14357448 -0.10345234 -0.17008857 -0.21483704 0.12769267 -0.19557789 0.049262993
0.051092908 -0.21163116 0.08613582 0.07362486 -0.027947193 -0.14571391 -0.07335902 -0.043984246
0.20760585 0.13435261 -0.18986477 -0.0042265523 0.06522342 -0.17961188 0.07924239 -0.18471205
-0.17692667 0.08383857 -0.15036729 -0.10738993 0.018295482 0.099156536 -0.040718004 -0.102387294
-0.14401464 0.10604164 0.07953947 0.0017619979 -0.046290617 0.041940723 -0.059481665 -0.17889012
0.14033175 -0.16450234 -0.10306305 0.10242094 -0.0868821 -0.076648705 0.03257659 -0.18147454
-0.01771546 0.08396173 -0.14423719 -0.04655444 -0.033206835 0.091516525 -0.22147381 -0.06443394
0.1544208 -0.064105816 -0.10155614 -0.010972959 0.0047714403 -0.20218697 -0.2311442 -0.21253356
-0.15857682 0.038438305 -0.1777108 -0.18611817 -0.15434535 0.1541619 -0.13518879 0.02205153
0.23365085 -0.19767271 0.13178042 0.11900756 -0.06208731 0.06399854 -0.003916606 -0.07264843
0.027752478 -0.02302459 0.026406432 0.030472605 -0.114801735 0.058655724 0.036544915 -0.13196555
-0.022509607 -0.17215736 0.18706276 0.11305877 -0.04423683 0.07275083 -0.08950716 0.13758828
0.10316625 -0.11701049 -0.23482604 -0.18677384 0.055183 -0.117696896 0.046098515 -0.04599342
00000000: 53b7 103e fd06 0dbe b730 863e 82f4 2abe
00000010: 6ff1 1ebe be03 f13d 3be5 2abe 4739 8d3c
00000020: 3cf8 473e fe63 8e3d 0022 4a3e 72a6 2c3d
00000030: eb24 7c3d aea3 efbd 4ac5 9c3e 15fe 82bd
00000040: 6193 623e 377b 7ab9 127d 91be 059f e63d
00000050: 09d6 283e 49b4 e83d 4052 36be 9c14 2e3e
00000060: 3484 553e e29a c53c a466 d1bd fc8e 49be
00000070: edca 013e 8398 4abd 2254 273e 111d 623e
00000080: e32c 133e dd51 a33d d104 d33d 56b5 223c
00000090: c2b4 633e 1bea 9dbd db28 af3d dd87 de3d
000000a0: 75b7 a53c bf5f 35bd 775a 343e 1129 293d
000000b0: bbe8 5cbd e6f2 0dbe eba3 1e3d 7873 0a3e
000000c0: 316a 39bd fd2f 3a3e 4127 f5bc d01d 3ebe
000000d0: c45c 5abe 3358 3fbe 3ebc ad3b 154d b73d
000000e0: 4797 09be 29f5 68be 8ce0 63bd b304 e3bd
000000f0: 131a 81bd 19e3 f93d e554 e5ba fc2f 713c
00000100: 12d3 6e3e cd80 693d 6862 d73d 5ef0 d7bd
00000110: 0ca3 5a3e 2ab9 7bbd 1603 7ebe a74b 323d
00000120: 539b fbbc 9d26 e5bd 1a05 d2bc 24b1 253d
00000130: 3b36 9b3d 3f3f 97bd fef5 5c3c d2a1 1ebd
00000140: ddad cbb9 68a8 003e 76dc ba3d 5f65 e5bd
00000150: b5f3 243c fefe 80bd fe5f 1cbd 99f3 003e
00000160: f10c 323e a62f 4dbd eab1 963d f0b6 45bc
00000170: f84d ebbd 8698 34be fc92 453e b16c faba
00000180: 3415 58be 4226 333e aed2 813e 5a44 49bc
00000190: 6c05 df3b 4a07 c93d a300 8b3c e332 173e
000001a0: c744 97be 7a33 d6bd 6b03 6bbd 4c23 97bd
000001b0: d188 a6bd 551f 02bd 9d53 8b3d 7dcd bc3c
000001c0: 4c82 f13d eda4 683e bad2 6ebe 9084 09be
000001d0: 28f0 013e ffb9 323e 9def 013d 45a8 f7bd
000001e0: 42d6 97bd 80ef 39bb 7b56 193e fe17 0a3d
000001f0: 2a70 863e dfc9 91be 460d 833d 5a50 65bd
00000200: 3215 44be 446f f2bd 21ae 64bd 122d 5d3b
00000210: cc35 0f3e db2a 99bd d53c 943d 1f2f 73be
00000220: 9be9 1bbe d273 293d 8802 4e3d 84e6 4d3e
00000230: 85f7 a7bd 6112 20be 1497 aebd 4186 1e3d
00000240: 98ff 35be c392 4e3e e5d5 893d cd2c 31be
00000250: b477 413d c89f dcbd bbad 4e3e dccb c03d
00000260: 954b 3abd 3005 13be d2de d3bd b32b 2ebe
00000270: 3efe 5bbe dec1 023e 9245 48be fec7 493d
00000280: cc46 513d d7b5 58be fa67 b03d a1c8 963d
00000290: 83f1 e4bc 0736 15be 413d 96bd d328 34bd
000002a0: a196 543e bb93 093e e96b 42be e47e 8abb
000002b0: db93 853d 2dec 37be d649 a23d 2825 3dbe
000002c0: 442c 35be 8eb3 ab3d e2f9 19be 40ef dbbd
000002d0: 68e0 953c 9512 cb3d ecc7 26bd 6eb0 d1bd
000002e0: 9378 13be 5c2c d93d 97e5 a23d d7f2 e63a
000002f0: 3b9b 3dbd 09ca 2b3d 0ca3 73bd f92e 37be
00000300: 20b3 0f3e 4d73 28be b812 d3bd 12c2 d13d
00000310: 3eef b1bd fff9 9cbd 086f 053d 76d4 39be
00000320: 0320 91bc 21f4 ab3d eab2 13be deaf 3ebd
00000330: e403 08bd 046d bb3d 08ca 62be f1f5 83bd
00000340: 7c20 1e3e e949 83bd aafc cfbd edc7 33bc
00000350: be59 9c3b 1a0a 4fbe 11b1 6cbe 66a2 59be
00000360: f661 22be 7c71 1d3d d2f9 35be c395 3ebe
00000370: b50c 1ebe 9edc 1d3e ee6e 0abe 69a5 b43c
00000380: 2b42 6f3e b76a 4abe 72f1 063e 3cba f33d
00000390: 434f 7ebd ab11 833d df56 80bb b3c8 94bd
000003a0: 2a59 e33c 119e bcbc 4d52 d83c afa1 f93c
000003b0: 2c1d ebbd fc40 703d 1fb0 153d fa21 07be
000003c0: 1166 b8bc 054a 30be 618d 3f3e 5b8b e73d
000003d0: ae31 35bd 63fe 943d 884f b7bd f1e3 0c3e
000003e0: d448 d33d 32a3 efbd 3d76 70be a441 3fbe
000003f0: 9207 623d 120b f1bd ccd1 3c3d 9963 3cbd

l3.bias f4 [50]
0.085397184 -0.05152796 -0.03850998 0.007911469 -0.013242429 0.034037646 -0.078585535 -0.07043495
0.012044915 0.034580488 -0.007969522 0.039550368 0.038085792 -0.053034727 -0.08570326 0.0581837
0.012716237 0.035979867 -0.024011455 0.065782264 0.040011104 -0.0865114 0.032324143 -0.038366362
-0.02784282 -0.08654032 0.025317 0.016382555 0.015456153 0.0037119791 -0.030387335 -0.004560387
-0.07855283 -0.031342745 -0.03983294 0.028667912 -0.08130869 0.042810496 0.08483166 0.022131903
0.00770752 0.03749863 0.0616042 0.043948185 -0.060262177 0.054274347 -0.06334548 0.025246793
-0.07479026 0.012642458
00000000: b8e4 ae3d fb0e 53bd a4bc 1dbd 1b9f 013c
00000010: c6f6 58bc 0f6b 0b3d 74f1 a0bd 3340 90bd
00000020: 0958 453c 45a4 0d3d 9992 02bc 91ff 213d
00000030: d9ff 1b3d f13a 59bd 3185 afbd 0852 6e3d
00000040: c457 503c a05f 133d acb3 c4bc dab8 863d
00000050: afe2 233d e42c b1bd 5266 043d 0c26 1dbd
00000060: a016 e4bc 0d3c b1bd 9965 cf3c b534 863c
00000070: ce3b 7d3c ad44 733b dcee f8bc 4d6f 95bb
00000080: 4ee0 a0bd 4061 00bd dd27 23bd f8d8 ea3c
00000090: 2c85 a6bd 0f5a 2f3d 39bc ad3d f74d b53c
000000a0: 5d8f fc3b 2a98 193d b054 7c3d 0303 343d
000000b0: 79d5 76bd c74e 5e3d 46bb 81bd 5dd2 ce3c
000000c0: a32b 99bd 5022 4f3c
