size500/uni_mr_model.pt (torch, 20479 bytes, 4 tensors)

l1.weight f4 [30, 150]
0	0x3e9b98b4	0.3038994
1	0xbde3a837	-0.11116069
2	0x3ee6c711	0.4507375
3	0xbf121cbb	-0.5707509
4	0xbe978112	-0.2959066
5	0x3f918695	1.1369196
6	0xbdbbc187	-0.09167772
7	0xbea945a6	-0.3306095
8	0xbf9a6b8d	-1.2064072
9	0x3e094407	0.13404857
10	0x3e7b9ba1	0.24571086
11	0x3daab134	0.0833458
12	0x3fd156a0	1.6354561
13	0x3f084cc8	0.5324216
14	0xbf4574f6	-0.77131593
15	0x3eefcbff	0.46835324
16	0xbf5ddc93	-0.86664695
17	0x3f0f5ce8	0.5600114
18	0xbf816fdd	-1.0112263
19	0xbebf9acc	-0.37422788
20	0xbfde5917	-1.7370938
21	0xbf6a84ac	-0.9160869
22	0x3df1f8b4	0.118150145
23	0x3ecdafb6	0.4017312
24	0x3f16c6db	0.5889718
25	0xbdfa97ad	-0.12235961
26	0x3fa7a718	1.3097868
27	0x3f3b2fa6	0.7311958
28	0x3eb3ecd3	0.3514162
29	0x3e91bdf3	0.28465232
30	0xbb1a45c2	-0.0023540114
31	0xbf70f52a	-0.9412409
32	0x3ee797c7	0.45232984
33	0x3f8ccf12	1.1000693
34	0xbfd8e225	-1.6944014
35	0x3ea8222d	0.32838574
36	0xbf074074	-0.5283272
37	0x3f10f2a3	0.56620234
38	0xbeaef8be	-0.3417415
39	0xbe820985	-0.25397888
40	0x3f4779cc	0.7792022
41	0x3d08a99b	0.033364873
42	0xbec2b838	-0.38031173
43	0x3f2ba335	0.6704591
44	0x3f006e35	0.5016816
45	0xbf812413	-1.0089134
46	0x3c902efb	0.017600527
47	0xbfa565f9	-1.2921745
48	0xbe92754d	-0.28605118
49	0x3fc58e62	1.5434077
50	0x3f142b28	0.5787835
51	0x3e39bbd8	0.18138063
52	0x3fb1e55e	1.3898122
53	0xbf1f526f	-0.6223516
54	0x3f36fb00	0.71476746
55	0xbe1a3ffa	-0.15063468
56	0xbfabfb8f	-1.3436145
57	0xbf991660	-1.1959953
58	0xbe840df4	-0.25791895
59	0x3e053ff8	0.13012683
60	0xbfa3554a	-1.2760403
61	0xbeae6c97	-0.34067222
62	0x3fe188ea	1.7619908
63	0xbf52f4d5	-0.82404834
64	0x3f913f5a	1.1347458
65	0x3e3b05fc	0.18264002
66	0xbebb752b	-0.3661283
67	0xbf5d79a5	-0.8651374
68	0x3fc53280	1.5406036
69	0xbef063f4	-0.46951258
70	0xbf4a925e	-0.7912959
71	0xbf494a9d	-0.78629476
72	0xbf39dd42	-0.7260324
73	0xbdfce04d	-0.123474695
74	0xbf7de8a5	-0.9918311
75	0xbee2fdc4	-0.44334233
76	0x3f388967	0.7208466
77	0xbd433d15	-0.047665674
78	0xbe4f6268	-0.20252383
79	0xbeec6268	-0.46168828
80	0xbf02f508	-0.5115514
81	0xbf93a368	-1.1534243
82	0x3e4f5e38	0.20250785
83	0x3f5c099b	0.85952157
84	0xbf803fe0	-1.0019493
85	0x3f10bcea	0.5653826
86	0x3e84dc95	0.2594954
87	0xbe61f4b0	-0.22065997
88	0x3f67ba31	0.9051848
89	0x3ec7a179	0.3899038
90	0x3f5d8fc7	0.8654751
91	0xbd4e9bd1	-0.050441567
92	0xbf7d68a4	-0.98987794
93	0xbf12f7b0	-0.5740919
94	0x3f95137b	1.164657
95	0x3e04454d	0.12917061
96	0x3f5db6bd	0.8660696
97	0xbe574490	-0.21022248
98	0xbeae8181	-0.3408318
99	0xbe12d5db	-0.14339392
100	0x3f226ea0	0.6345005
101	0x3ca28d24	0.019842692
102	0x3ebac97c	0.36481845
103	0x3e41ecd0	0.18937993
104	0x3d5fa5e0	0.05460155
105	0x398b6d69	0.00026593663
106	0x3e66c503	0.22536092
107	0x3eaa03d4	0.33206046
108	0xbe86a010	-0.26293993
109	0x3ef3bcee	0.4760508
110	0x3e0c6505	0.13710411
111	0x3ea12a87	0.31477758
112	0xbe5fc624	-0.21852928
113	0x3ed0019e	0.40626234
114	0xbed09a75	-0.4074284
115	0x3f0ef5ad	0.5584362
116	0x3ddf33e2	0.10898568
117	0x3e9ad457	0.30240127
118	0xbe61b3ed	-0.22041292
119	0x3f572633	0.8404266
120	0xbba330c2	-0.0049801776
121	0xbf2453a2	-0.64190114
122	0x3e5e7595	0.21724541
123	0xbb86bb99	-0.004111719
124	0x3f1b4d01	0.60664374
125	0x3e99d609	0.30046108
126	0x3e2f9e8c	0.17150325
127	0xbc7d514b	-0.015461276
128	0xbe76fe03	-0.24120335
129	0xbde11986	-0.10991196
130	0xbe54ad9b	-0.2076935
131	0x3d9e6ac9	0.077352114
132	0x3e991980	0.29902267
133	0xbde3a1e9	-0.11114866
134	0xbdb8e9ca	-0.09028967
135	0x3e0a65c7	0.13515387
136	0x3e7356bc	0.23763555
137	0x3e0576ab	0.1303355
138	0x3f200582	0.62508404
139	0xbf1573ff	-0.5838012
140	0x3f19d781	0.6009446
141	0xbe35461f	-0.1770253
142	0x3ee64927	0.44977686
143	0x3de24909	0.110490866
144	0xbe134e3d	-0.14385314
145	0x3d24ae0e	0.040205054
146	0xbf292f57	-0.6608786
147	0xbe9d4dfa	-0.30723554
148	0xbe99eec1	-0.30064967
149	0x3e015acd	0.12632294
150	0x3da1fc31	0.0790943
151	0xbf2372b5	-0.63846904
152	0x3ee3c8d7	0.44489166
153	0x3eddb3e9	0.43301323
154	0x3ec6982a	0.38787967
155	0xbef4c246	-0.4780447
156	0xbd949a54	-0.07255998
157	0xbf0a923f	-0.54129404
158	0x3e51bec3	0.20482926
159	0x3ef7056d	0.48246327
160	0xbe89612c	-0.2683195
161	0xbe3d9bdb	-0.18516485
162	0x3de0948b	0.10965832
163	0xbdc48ce0	-0.09597182
164	0xbe470185	-0.19434173
165	0xbe575567	-0.21028672
166	0x3e4601b9	0.19336595
167	0x3e0d5b1d	0.13804288
168	0x3ea61b2a	0.324426
169	0x3e682bec	0.22673005
170	0xbf0f4841	-0.55969626
171	0xbe322521	-0.17396976
172	0xbe86c0af	-0.2631888
173	0xbf1ef314	-0.6208966
174	0x3eb9394d	0.3617653
175	0xbce19387	-0.027536167
176	0xbe3fb157	-0.18719994
177	0xbdcc23ad	-0.09967742
178	0x3dbaaae0	0.09114623
179	0x3f88b07e	1.0678861
180	0x3d1d80dc	0.038452968
181	0x3e30f929	0.17282547
182	0xbe3e624e	-0.18592188
183	0xbef36fb5	-0.47546163
184	0x3e60c5e1	0.21950485
185	0x3eb83c3d	0.35983458
186	0xbe6e834e	-0.23292276
187	0x3f8194da	1.0123551
188	0xbe1106a2	-0.14162686
189	0xbdb7a040	-0.08966112
190	0x3de60b37	0.11232608
191	0xbdce6d2d	-0.100794174
192	0x3f70cef5	0.9406579
193	0x3e687a7d	0.22702976
194	0x3f84e41e	1.0382116
195	0x3e0c434a	0.13697544
196	0xbf326f9b	-0.69701546
197	0xbe312394	-0.17298728
198	0x3eeead93	0.46616802
199	0x3f73b509	0.9519811
200	0xbf904a81	-1.1272737
201	0x3f3e20e5	0.74268943
202	0x3cac816b	0.021057805
203	0xbf2a5a12	-0.66543686
204	0xbe95933b	-0.2921389
205	0xbb8a8e18	-0.0042283647
206	0xbf84351b	-1.0328707
207	0xbede7388	-0.43447518
208	0x3e92c850	0.2866845
209	0xbf82ee9a	-1.0229065
210	0xbf9ba212	-1.2158835
211	0x3db81161	0.0898769
212	0x3d85057f	0.06495189
213	0xbefcb897	-0.4935958
214	0x3f3ae2cd	0.7300232
215	0xbeb8c343	-0.36086473
216	0x3d5d851c	0.05408202
217	0xbfce71de	-1.61285
218	0x3f9f66e8	1.245328
219	0xbf0997f3	-0.5374748
220	0xbe86c8f3	-0.26325187
221	0x3d963e2a	0.073360756
222	0x3e519f20	0.20470858
223	0x3e11cfdf	0.14239453
224	0xbfc800d6	-1.5625255
225	0xbf47b441	-0.7800942
226	0xba316c66	-0.0006768167
227	0xbf2c47cc	-0.67297053
228	0xbe33757e	-0.17525288
229	0x3e6bf930	0.23044276
230	0x3f86ca87	1.0530556
231	0xbf1bac9f	-0.60810274
232	0xbe2d5d8c	-0.16930217
233	0x3e7e2b6a	0.24821249
234	0xbed6e8c4	-0.4197446
235	0xbf27abe2	-0.6549665
236	0x3ce32b64	0.027730651
237	0xbf29ee7f	-0.6637954
238	0xbe20123f	-0.1563196
239	0x3fc85e1c	1.565372
240	0xbf5b64cb	-0.8570067
241	0xbf3560b9	-0.7085071
242	0xbe9a2927	-0.30109522
243	0xbfbc517b	-1.4712366
244	0x3eb87657	0.36027786
245	0x3e99e910	0.30060625
246	0x3f6894e0	0.90852165
247	0x3ed30b9d	0.41219798
248	0x3e8275ed	0.25480595
249	0xbeb1637c	-0.34646213
250	0x3d2d85bc	0.042363867
251	0xbeb8ee2a	-0.36119205
252	0x3ec0ee61	0.3768187
253	0xbe25df9b	-0.1619858
254	0xbda235ab	-0.079203926
255	0xbde8b33b	-0.113623105

l1.bias f4 [30]
0	0x400caf68	2.198206
1	0xbe80580d	-0.25067177
2	0xbd17f0e6	-0.037094973
3	0xbf6bd865	-0.92127067
4	0x3e80fa4f	0.2519097
5	0xbf21244c	-0.6294601
6	0x3f8c19c3	1.0945362
7	0xc0824666	-4.0710936
8	0xbf6764a7	-0.9038796
9	0x40345c36	2.818128
10	0x3f9e5777	1.2370442
11	0x3f51f14c	0.82008815
12	0x3f8239a1	1.0173837
13	0x3fe16e5f	1.7611808
14	0xbf76ea89	-0.9645162
15	0x3eb6bc2b	0.35690436
16	0xbf874fde	-1.0571249
17	0x3f4b2262	0.7934934
18	0x4028e10c	2.6387358
19	0x3ebde271	0.37086824
20	0xbe303e9d	-0.17211385
21	0xc021078a	-2.5160851
22	0xbf1428dd	-0.5787485
23	0x3f3afa48	0.7303815
24	0x3e405601	0.18782808
25	0xbe8180b6	-0.2529351
26	0x3f7f891a	0.99818575
27	0x3eaa348f	0.33243224
28	0x3f588432	0.84576714
29	0xbfeab23c	-1.8335643

l2.weight f4 [1, 30]
0	0xc0d5f209	-6.6857953
1	0xc047a52b	-3.119456
2	0x40a9988c	5.2998714
3	0x408636c8	4.194187
4	0xc08bef6a	-4.3729753
5	0x405c1317	3.4386652
6	0xc0883463	-4.256395
7	0x4105d957	8.3655615
8	0x4011c6e0	2.2777634
9	0x40fa42d2	7.820657
10	0x4109e351	8.617997
11	0xc088c99c	-4.2746105
12	0xc0a0c386	-5.0238676
13	0xc121d4d7	-10.114463
14	0x40b17ab6	5.5462294
15	0xc08a7b81	-4.327576
16	0xc06e8079	-3.7265913
17	0x40aa8c3f	5.32962
18	0x408ee2a9	4.4651685
19	0x40ba4be0	5.821762
20	0xc0218543	-2.5237586
21	0xc08a6141	-4.324372
22	0x4066e48a	3.607699
23	0xc0ac9ab3	-5.393884
24	0x4101f27b	8.121699
25	0x3fa316f0	1.2741375
26	0x4093f401	4.6235356
27	0xc0ce121d	-6.439711
28	0xc0bef3ae	-5.967246
29	0xc08daa64	-4.4270496

l3.weight f4 [1, 15]
0	0x3e8120eb	0.25220427
1	0x3d96cc83	0.07363226
2	0xbd512572	-0.0510611
3	0xbda4ae12	-0.08041014
4	0x3e6469c5	0.22305973
5	0xbd5153f4	-0.051105455
6	0xbd9f47ac	-0.07777342
7	0xbe559e02	-0.20861056
8	0xbe28469d	-0.16433187
9	0xbdccc3d8	-0.09998292
10	0xbe79b090	-0.2438376
11	0x3c550e31	0.013003872
12	0xbd718dc3	-0.058973085
13	0xbe018c0f	-0.12651084
14	0xbdad9ba5	-0.084769525
